test/Helmholtz/helmholtz.pt (torch, 18511 bytes, 8 tensors)

net.0.net.0.weight f8 [30, 2]
-0.264731709751389 -0.6089149508064475 -0.2622753330836814 -1.161259953335666 -0.1082637103978594 0.03820422276246691 -0.3333610735211622 0.8480326684849909
-0.15827797157445755 0.364045912157077 -0.2057129152105014 -0.653837199577827 -0.30879059986671703 0.7080209348365912 -0.0906179861210193 0.19120203845383996
-0.2519626297289632 -0.9488852955955636 -0.41511833713636687 -1.2677450644441297 -0.22313553184082746 -0.9991092381297165 0.00026096420153696185 0.07383063698118687
-0.062046926360943826 -0.08078971200494771 0.21101651036096955 -0.0465222478473858 -0.0676205379825525 0.052176063604530365 0.22661382901063645 -0.5489886470746264
0.3737275682599606 -0.2893135865945269 -0.23927755972559508 0.24345590347377935 0.10039550120823164 1.5607317125218114 -0.05171956005793833 0.38750875700058557
-0.3506980689305105 0.9702146003526446 -0.3360428768870335 -1.4858749460706486 0.07592406670697255 -1.329389134694709 -0.2917896433092182 -1.2010803730766135
0.05123913212988845 0.5484993705361579 -0.23395870360067914 0.5463940270987893 0.33979732548021807 0.055204752258560516 0.18265056971511326 -0.4233496494263825
-0.2434462351646452 -0.7551587668899741 0.19470760199876283 -0.2808096662874575
00000000: 172b e644 5df1 d0bf e24a f834 3b7c e3bf
00000010: 3115 897a 1ec9 d0bf e1b2 1b51 8594 f2bf
00000020: ae9e 80a7 2bb7 bbbf 2df4 aafe 808f a33f
00000030: 1a1a 22af c955 d5bf 09a5 2268 1523 eb3f
00000040: 2875 cbdb 7342 c4bf b141 bd39 874c d73f
00000050: 84d2 9801 cd54 cabf 2d0a a3fd 3bec e4bf
00000060: 6b58 efa5 39c3 d3bf 4d35 0085 1ba8 e63f
00000070: 75b4 d186 bd32 b7bf 473c 0bf3 4e79 c83f
00000080: e400 a0dd 2720 d0bf a69f 07b2 445d eebf
00000090: 471e 7e80 4c91 dabf 483f 770c af48 f4bf
000000a0: 607c ea81 b48f ccbf 67c1 dcef b3f8 efbf
000000b0: 68ee 05b6 401a 313f 79ec 468b 90e6 b23f
000000c0: e73c 135f 9dc4 afbf 431d ea72 a2ae b4bf
000000d0: e74c 75c9 9602 cb3f 92f4 149a c3d1 a7bf
000000e0: ff48 2c5f 944f b1bf c885 a12d d2b6 aa3f
000000f0: bd04 3694 ae01 cd3f 20f2 a1a3 5091 e1bf
00000100: a191 d208 27eb d73f b490 2d22 1d84 d2bf
00000110: 3d14 d8a6 a5a0 cebf e110 b823 9029 cf3f
00000120: a3d9 5a02 85b3 b93f b2c7 f1d0 c1f8 f83f
00000130: 2253 0676 fc7a aabf c5ca 8e87 f1cc d83f
00000140: deeb 3450 d671 d6bf e2b8 537d ff0b ef3f
00000150: e625 92fb b981 d5bf 711b b5ce 24c6 f7bf
00000160: 645b 7c77 c26f b33f 86be 928a 2d45 f5bf
00000170: 34c6 d477 aeac d2bf 5db4 a30d a037 f3bf
00000180: 27ed 8bf9 033c aa3f 518a 4a8d 4e8d e13f
00000190: 372c 4ada 5bf2 cdbf 28cf a353 0f7c e13f
000001a0: e52b 0d48 3dbf d53f b68f 111b cc43 ac3f
000001b0: c7d6 c207 1861 c73f d9cc c320 2918 dbbf
000001c0: b2e8 2e09 3f29 cfbf 6590 e2b7 422a e8bf
000001d0: b902 6fbf 2dec c83f 4cbd 461b c9f8 d1bf

net.0.net.0.bias f8 [30]
2.048935163727818 0.7009714790938384 1.195519106408869 1.5180149933835256 0.3736354783686008 -1.231352640849511 -0.2686618351073077 -0.6721974914342799
0.37817688938406235 -0.16431318040048135 -1.4987914985771422 0.3351518032188642 -0.2453760427031999 -1.6481289622432302 1.1814684579361145 1.8016884768493788
-0.4131731717167932 0.5167114988237372 -0.6143203512007552 -1.0364928385032357 1.2953724637331097 -0.04222838233984198 -0.7428824693571761 3.5134139540663067
0.14540657805637372 -0.758486867639993 -1.2968351299356595 0.417753801656844 -2.1107540303272314 0.06756493676188217
00000000: deae 7e1e 3864 0040 8860 44bd 5b6e e63f
00000010: cb4e 7ca4 d820 f33f e8b7 f616 ca49 f83f
00000020: 2efb 0dc8 a4e9 d73f 8eab a4d3 9eb3 f3bf
00000030: e207 de68 c131 d1bf 2a3b 4550 a482 e5bf
00000040: d27b 00d7 0c34 d83f a797 0fdc 3608 c5bf
00000050: 2596 5ecb 0cfb f7bf 0a4f 818c 2073 d53f
00000060: 10ea 506f 7b68 cfbf 2ecd 8679 bc5e fabf
00000070: 6875 4178 4be7 f23f c35e da4b b7d3 fc3f
00000080: 0fed 06e3 6d71 dabf 7348 9d8d e688 e03f
00000090: 5395 3527 83a8 e3bf c08d be83 7995 f0bf
000000a0: 62f6 fd79 d8b9 f43f 66a7 3962 f59e a5bf
000000b0: 3825 d574 b1c5 e7bf dc32 70c6 781b 0c40
000000c0: fd0c b0c8 ae9c c23f 2eb2 5e40 8645 e8bf
000000d0: 850a 7631 d6bf f4bf 0b55 f970 7abc da3f
000000e0: c63e 5102 d3e2 00c0 bba3 bf89 ef4b b13f

net.1.net.0.weight f8 [30, 30]
-0.0997792030295168 0.08311372349611713 -0.479421437979868 -0.8125551662195986 0.2025359110238067 0.28940965889536374 -0.038695306618509964 0.23461899312581908
-0.025029479207306173 0.12443442148830049 0.7095540710225746 -0.32881746662109873 0.06275288895514389 0.02972582137101312 -0.2975149093629161 -0.259673288669603
0.3983439442452859 -0.41925677385986176 -0.45648227886666265 0.11132510187913035 -0.7406859568621154 -0.09859051993805185 0.31457617572400387 -0.150292164327794
-0.03958218653521118 -0.4573705187161742 -0.10413062583530718 -0.1290245917979327 0.33184406798814364 0.06829930477574041 -0.05138132687781073 0.042632167030794955
-0.29517551310678103 -0.21932645377204407 -0.35071131258252897 0.024344744416732636 0.11780643458749274 0.02966803822178508 0.091569993067901 -0.30533888246441343
0.32560122319025586 0.2343914893952903 -0.034950991822882985 -0.019313506416995634 -0.24577191367921633 -0.1911683573385272 0.18503358698754957 -0.16446801737485747
0.08569519191041586 0.3339029257098554 0.20310669429939388 0.13379058224740936 0.14657577809192368 -0.13724851137131663 -0.29813490538580306 -0.05273247924475136
0.4951228644310876 -0.09318532251152231 0.28411934734010036 -0.09400559040040561 0.2671063646737992 -0.005330986169957556 0.21626441312864714 -0.4958252507117424
0.21370348057349856 0.4564369409035973 -0.1355114583565894 0.2773476280943039 -0.013762994644276834 -0.3936777205798794 -2.023384323079356 0.14044115152586423
-0.026090386759805743 -0.07053034048617698 -0.5191781606905218 -0.040185512557869674 0.044456130152074565 0.25724302840874413 0.5432877948224187 0.2615611894226499
0.17528591443477187 -0.11935700720945906 0.32627576552354964 -0.5659096929414458 -0.36358708524274735 -0.7265942269364954 -0.27890890523728196 0.5143644204106419
0.3243109716405923 -0.4406559947830673 0.3162309691862833 0.6281301144970576 0.03309885603645235 0.40577513505714047 0.17958214494741825 -0.4348869760497189
0.04534822366306391 -0.43716321142073633 0.16660883500856843 -0.2078534881619084 -0.4741846813531901 0.0936668540162132 0.18208372193559316 -0.0765599595411385
-0.02298607582976338 0.11749986686324469 -0.15714684885524569 0.2542350475995922 0.6350031266515163 -0.4834509791507104 0.5355946138946239 -0.07119744855347676
-0.028064994960799186 -0.12915620643382458 -0.01035794367058964 -0.1729791514755969 -0.6518058582839263 -0.250392895003679 -0.05977391935570602 -0.20867350404803825
-0.3085482090066178 -0.02587663027805616 0.034922669464626105 -0.5223781278491746 0.497062438502235 -0.627755258484822 0.004358934809571954 -0.015328346962634047
-0.018237360916882953 -0.34536610053386246 -0.39999940172353604 0.35627478802096907 -0.24433317263376197 -0.29264378576173183 0.3311904088225001 0.1633486497646297
0.5321171591198576 0.06930433956374099 -0.05754747118930062 -0.18588761839939116 0.6391006701706791 0.15721734325736403 -0.09733367699277709 0.18728712463479377
-0.09837283592021481 0.1374111504108472 0.40132207176254253 0.11155025865333816 -0.3010947934841786 0.15066101158135928 -0.9492661424561364 -0.5503286297514276
-0.13634076938001535 0.07385689911225517 0.36879480634215883 -0.13093281676573443 0.25606955671558757 0.18080269969653617 0.3365132148293535 -0.38282413674419485
-0.05098827460568872 -0.1007396657639474 0.16805944222524632 0.3205895064434275 -0.20644283178918624 -0.6886898312269835 -0.3695634570955263 0.175511053752501
0.45282358269104245 0.28319967267382856 0.03830871937632503 -0.3066527346892219 0.2106521037900969 0.10991158606589195 -0.21344029602151407 0.4322172197145663
-0.017797643402552278 -0.5499545438628568 0.22088124789010882 -0.2221952169967834 0.2576201251650927 0.13672036771976162 0.004993628899888265 0.5389455051452269
-0.17312514877990165 -0.09098057344259927 -0.11212757091996654 0.10939131661431979 0.026969970080088387 -0.2986385784537011 -0.5613742451516266 -0.11665070060558257
-0.04546148796158641 -0.03088931792216137 0.0971029734717368 0.1794969412363009 0.16746125766812023 -0.10415575167645415 0.1497421607686581 -0.562331952032563
-0.026304290641818547 0.12259171369163105 0.3158308772712186 0.6409761256912646 0.23467938766172908 -0.4138234504973304 -0.13387963541401895 0.30731096135048735
-0.02593356336772499 -0.12986879815435928 0.034565374347194526 -0.8235049607046238 -0.27050679503633396 -0.05610601949808166 0.3836191972028793 0.18049052233473842
0.3562754406148238 -0.4433170493392862 -0.06063672741034977 -0.08636348350218635 -0.10733583246095571 0.18977764639362016 0.016882462912492947 -0.20919849668050655
0.09733684249077156 0.23382355012759481 -0.14240547521301142 0.11517130694876775 0.028923373027954717 -0.3569294781844349 0.1442390702481568 -0.4494821396990894
0.39521214312126207 -0.49078687085423817 -0.14591437468406168 -0.08519979930159921 0.6118940192319425 -0.3771549879744159 -0.069473223436254 0.1764351828099273
-0.12501846382157583 0.7404909363835883 -0.19886042371823442 0.058600648935669006 -0.18635437133497604 0.5490681078826163 -0.02457022460867169 -0.1405277796117535
0.10131528809076074 -0.7779058241745266 0.062048015052769995 0.43357642262429524 0.12361462063306172 0.3203054307258775 0.0016782774552512297 0.28357331542802955
00000000: 0f2d d53d 218b b9bf 79bd 43e4 f046 b53f
00000010: 24fd 4741 d7ae debf 177d 23b1 7300 eabf
00000020: be70 0e5d b2ec c93f da88 0617 b085 d23f
00000030: 92d1 de08 dfcf a3bf be77 3fc3 fe07 ce3f
00000040: 6a71 86ea 53a1 99bf 55f7 c92a efda bf3f
00000050: cb23 39bd aab4 e63f ab6f 5f6a 580b d5bf
00000060: 82b7 cac5 9210 b03f 277c 8a1a 7270 9e3f
00000070: ef4f 72f9 7b0a d3bf fdc3 9eb6 7c9e d0bf
00000080: 2df6 4599 777e d93f 57b1 165d 1ad5 dabf
00000090: 43e5 bb72 0137 ddbf 9f73 cb47 cd7f bc3f
000000a0: 3c89 2a09 b3b3 e7bf 9c5e d472 3a3d b9bf
000000b0: 4e76 b51c 0422 d43f f303 510d c63c c3bf
000000c0: d186 58c9 1d44 a4bf f297 02ff 8e45 ddbf
000000d0: 1f83 7900 4ea8 babf 8070 13b9 e083 c0bf
000000e0: 055d d8e6 ee3c d53f 87f1 5930 107c b13f
000000f0: c26c 213d a74e aabf 9d4b 4f26 e2d3 a53f
00000100: c8e9 d7d5 27e4 d2bf 709e 0ca5 e312 ccbf
00000110: bc44 78dc 0d72 d6bf c4ba 6524 d4ed 983f
00000120: f0c7 cfff 8f28 be3f 3b9f 9857 4c61 9e3f
00000130: 5e86 858d 2171 b73f 2070 9818 ac8a d3bf
00000140: 98f1 4883 a6d6 d43f a8ed b452 8a00 ce3f
00000150: a220 afad 18e5 a1bf ce73 ba79 ebc6 93bf
00000160: 6387 c33d 7475 cfbf 2746 6669 3478 c8bf
00000170: d4f4 623a 2eaf c73f e375 eeb9 490d c5bf
00000180: 80ff adbe 1ef0 b53f 5d9a 7d60 aa5e d53f
00000190: 1caa ce70 66ff c93f 54f9 a1bf 0c20 c13f
000001a0: 4031 a5be fec2 c23f c7da e1f5 5b91 c1bf
000001b0: a365 1b6d a414 d3bf 141f 9663 c0ff aabf
000001c0: 6bef 8ecf 17b0 df3f b679 a748 feda b7bf
000001d0: 6224 3fea 022f d23f a331 6918 c010 b8bf
000001e0: 68f4 344b 4518 d13f 1e1a 16b4 f1d5 75bf
000001f0: d28c d662 8dae cb3f b7a0 15d5 99bb dfbf
00000200: d161 0dba a25a cb3f c880 7749 4336 dd3f
00000210: 04fa ef80 7058 c1bf f871 1244 10c0 d13f
00000220: a435 23df c52f 8cbf 6c7b c309 0432 d9bf
00000230: 61eb b61e e42f 00c0 2c78 68c4 f9f9 c13f
00000240: 5151 7e37 70b7 9abf 4e8d c3c1 460e b2bf
00000250: bbd2 9e84 1b9d e0bf 4808 6b0c 3293 a4bf
00000260: 2942 3832 f4c2 a63f 78ee 8876 ab76 d03f
00000270: ff80 e215 9d62 e13f f747 9e24 6bbd d03f
00000280: ba30 f9d2 c46f c63f 1758 834a 2e8e bebf
00000290: 26aa 99bf b3e1 d43f 7e88 f5a4 ee1b e2bf
000002a0: 6765 17c4 0245 d7bf e5f2 4489 4240 e7bf
000002b0: a0aa a3bc a4d9 d1bf 7078 7c5f ac75 e03f
000002c0: 7c8a 3bce 82c1 d43f b44b 9833 b533 dcbf
000002d0: 51cc a8d1 203d d43f 1fb9 6c53 a419 e43f
000002e0: 9053 6c50 55f2 a03f fa6c a645 38f8 d93f
000002f0: 1a52 bf37 8cfc c63f 8fc0 e52e 30d5 dbbf
00000300: 110d 21e3 e137 a73f d63f 0468 7bfa dbbf
00000310: 2a11 cb34 7053 c53f e4e8 016f f19a cabf
00000320: c145 abb4 0a59 debf 0706 b80a 8dfa b73f
00000330: 5375 6cf7 844e c73f ba8a 69fa 6e99 b3bf
00000340: 1510 cf6f a989 97bf fb44 76a5 7814 be3f
00000350: a159 4050 631d c4bf effb bb13 6345 d03f
00000360: a96e ba13 f251 e43f 83f9 2a60 dcf0 debf
00000370: c2ea d250 9723 e13f 0088 18f9 fe39 b2bf
00000380: 847e 13ee 11bd 9cbf bab6 5ac9 3088 c0bf
00000390: 0c4c 8daa 8b36 85bf 561f 3d4b 2e24 c6bf
000003a0: 2a76 95f5 97db e4bf 9242 cceb 6f06 d0bf
000003b0: f7af 92e9 af9a aebf 46ca b639 d0b5 cabf
000003c0: 170f bbfc 40bf d3bf 7488 1943 677f 9abf
000003d0: 24ab 7a56 62e1 a13f d040 e855 52b7 e0bf
000003e0: 9ff9 5bf9 decf df3f e4b2 2232 9216 e4bf
000003f0: 8978 3da7 acda 713f 2f02 40e7 7764 8fbf
00000400: d43d d092 d0ac 92bf c128 bc6a 7a1a d6bf
00000410: 299e 3417 9799 d9bf 0b1f bcc4 34cd d63f
00000420: 6c1c e534 4f46 cfbf 6b5a 4e00 adba d2bf
00000430: 770e a941 3932 d53f 20dc 4aca 9be8 c43f
00000440: 4bed 8190 1a07 e13f 64ab e5df edbd b13f
00000450: 147b 73b5 dc76 adbf f8db e05c 2acb c7bf
00000460: 1183 a73f 8373 e43f e0c2 d3a9 b21f c43f
00000470: 72c0 7b1f dcea b8bf 2758 a245 06f9 c73f
00000480: a693 1751 f62e b9bf d566 8f46 b096 c13f
00000490: 7884 58c5 42af d93f 03c4 c6c8 8e8e bc3f
000004a0: bdaa c018 2345 d3bf 7d19 c32a dc48 c33f
000004b0: e892 a163 6360 eebf 4ab7 5ac9 4a9c e1bf
000004c0: 5fa0 cc44 9d73 c1bf 4b67 4526 49e8 b23f
000004d0: 8326 0b88 559a d73f d8b1 fd12 68c2 c0bf
000004e0: 010f e690 7163 d03f 20d1 1cf9 8a24 c73f
000004f0: 104a 17b9 6e89 d53f 4fe3 dbce 3080 d8bf
00000500: 8861 d297 221b aabf 5dba dd21 13ca b9bf
00000510: 861a 12c8 f882 c53f 1d61 67d9 8984 d43f
00000520: 899b 83fd b76c cabf 19a5 c641 bf09 e6bf
00000530: 3268 817c eda6 d7bf f50b fa6d 2577 c63f
00000540: 3fff a0c3 0ffb dc3f d3ce 1785 f11f d23f
00000550: 4af4 be51 339d a33f ed06 aeca 32a0 d3bf
00000560: 1c58 4eec a5f6 ca3f 33c0 9a6b 2a23 bc3f
00000570: 99cd 87f9 0252 cbbf 824b dc69 72a9 db3f
00000580: da77 70a1 8b39 92bf a2ae 8545 3a99 e1bf
00000590: 826c fe33 d645 cc3f 6216 2a93 e470 ccbf
000005a0: 3008 181f d97c d03f 1dd8 0692 0d80 c13f
000005b0: 559b 030d 3374 743f 2f99 dda4 0a3f e13f
000005c0: d6f9 0f02 f728 c6bf c2dd 81bb 804a b7bf
000005d0: 03c8 147a 64b4 bcbf a92b 53bf 1101 bc3f
000005e0: df4f df0d 049e 9b3f bc15 f2fb e41c d3bf
000005f0: 06c6 f71e c7f6 e1bf 0f0e 2800 d2dc bdbf
00000600: 9b86 0b68 ba46 a7bf aff1 1509 73a1 9fbf
00000610: 90cc 678f bddb b83f e4c4 2b7a c1f9 c63f
00000620: a70b 84d8 5e6f c53f cd02 248b f3a9 babf
00000630: acb8 aa49 c02a c33f ed38 ef93 9ffe e1bf
00000640: cf50 3410 83ef 9abf 42ef 10a9 2b62 bf3f
00000650: 9499 3cb6 9236 d43f 678b 2b5d e082 e43f
00000660: 1ab6 8663 f909 ce3f d80c 8d5a 157c dabf
00000670: 0d10 dac7 f722 c1bf 6ff8 2c98 fbaa d33f
00000680: daea 21fa 538e 9abf 9501 6c70 8a9f c0bf
00000690: 5f57 ca80 8db2 a13f 753e 4a13 275a eabf
000006a0: 93b7 81bb fb4f d1bf 4bbc b49d edb9 acbf
000006b0: 40aa 8688 378d d83f 5134 553d 501a c73f
000006c0: 0fc1 7381 37cd d63f 14f9 2a79 4e5f dcbf
000006d0: 32ed 53f2 c60b afbf 07e5 35d1 ea1b b6bf
000006e0: 62d6 1b72 5c7a bbbf acdf 6248 a24a c83f
000006f0: dd21 57e8 a249 913f eabc ce2e 04c7 cabf
00000700: b79a 313b 11eb b83f d493 6a1a eeed cd3f
00000710: 25d6 67b5 573a c2bf 3754 c8e4 dd7b bd3f
00000720: aef4 fab4 169e 9d3f 9af3 f1bc eed7 d6bf
00000730: 4eb9 c204 6d76 c23f 4132 89bc 50c4 dcbf
00000740: 6c06 6cdf 274b d93f 1b02 e855 0d69 dfbf
00000750: 1965 a47d 52ad c2bf 344a a06f a7cf b5bf
00000760: 9703 27c4 a294 e33f 9de5 b7ac 4e23 d8bf
00000770: cc3d 9b46 ffc8 b1bf 4f26 0496 6d95 c63f
00000780: 0642 c1e2 9a00 c0bf cc0f 580c 1ab2 e73f
00000790: 9c54 2b24 4274 c9bf 86f9 677d e700 ae3f
000007a0: a9d8 2cc5 75da c7bf ec3c d447 f791 e13f
000007b0: ce35 99dc ef28 99bf 4255 ce74 d0fc c1bf
000007c0: 4844 ef78 ccef b93f 1152 46c1 9ae4 e8bf
000007d0: bce1 dde6 c1c4 af3f c33b df52 b7bf db3f
000007e0: a02b ed30 35a5 bf3f c1b9 6c59 e27f d43f
000007f0: f8b6 2bb2 347f 5b3f 0807 f2b0 1026 d23f

net.1.net.0.bias f8 [30]
-0.3026363866448539 -0.5618752108353081 0.06490318544370531 0.21164359304668942 0.49405632392833265 -0.859297470793807 0.3951161036887987 0.05194191600195947
-0.6922579387016893 -0.8396867155669421 -0.5224929655452948 0.45690784857045796 -0.3349908798449286 0.9770641138530789 -0.7997332576935443 0.09531390090162252
0.28640650172280957 0.27105235946969053 -0.23389031901191526 -0.5710805032970563 0.27717755427873203 -0.71744635131685 -0.07735431241370809 1.3926194740116673
-0.07216162515327441 -0.5178879509821758 1.456164651694628 -0.26167129897709684 0.13555368586938127 0.43603150504836835
00000000: 5608 ce01 655e d3bf 6910 dfb8 e1fa e1bf
00000010: 570e e3c2 7e9d b03f 3b90 4523 2317 cb3f
00000020: f0dd 696a 9e9e df3f 8e09 d368 5d7f ebbf
00000030: 70d8 dd0d 9549 d93f c93c 0a7d 2198 aa3f
00000040: 17d8 e31e fa26 e6bf 88dc c7ac b6de eabf
00000050: ee06 ed2a 43b8 e0bf 6655 b96a fa3d dd3f
00000060: 5c1a 5996 7d70 d5bf a403 e3f5 1b44 ef3f
00000070: 6e27 6a33 6a97 e9bf f905 3ae7 7d66 b83f
00000080: 12b8 90ef 7b54 d23f e042 dbfe eb58 d13f
00000090: 60eb 8033 1ef0 cdbf 1469 a19e 4a46 e2bf
000000a0: acfe b3ec 46bd d13f ef4a f10c 52f5 e6bf
000000b0: 4b7d 0502 7ecd b3bf 0172 8a5b 2b48 f63f
000000c0: 013d 0f2c 2f79 b2bf a9bf 8ec0 8992 e0bf
000000d0: 1fea 494e 734c f73f 5c24 daf9 38bf d0bf
000000e0: d6a3 d4bb d259 c13f 7156 8daf f0e7 db3f

net.2.net.0.weight f8 [30, 30]
0.1890942735413489 -0.15952921262880204 0.46575874903703673 -0.09166393918835797 -0.24748298028073915 0.014472348127268279 0.1771733959249844 0.19431139770602263
-0.2545720728652773 -0.12896266756556768 -0.2488439939499128 -0.5940666267885385 0.5046248901207012 0.10579129317963365 -0.5714287124315953 -0.7923735324797474
-0.18928218606320088 0.8270665369401132 -0.11204518077919368 -0.1110732282166853 0.3389733215716424 -0.2632442605827363 -0.18859192098635255 0.2527383669126802
-0.14963302383133856 0.6223734725960904 -0.13863191061062688 0.32562977853960534 0.24191708591760291 -0.3865963735054698 -0.22190782405853943 -0.38973937342322623
-0.10106128680912126 0.20222004687728237 0.19277182199843643 -0.12489965461150017 -0.20956810107756885 -0.06642177756236382 -0.10879328480904651 0.21942370836161565
-0.007975676545045442 0.16905251880126568 0.09530051510708971 0.3338685713833768 -0.5308094034486037 -0.2624708639082482 0.20720990085664096 -0.18479171464943195
0.0572693696000092 -0.24682194063995902 -0.2293312539115146 0.007034388584634577 0.20941970561654386 0.45357832154881594 0.011253924015904025 -0.21988276712486862
0.004222050456851207 -0.18027345218137455 0.29958611482151826 0.10866873843978185 -0.1126499061433127 0.32146040594321845 0.9430390071272016 0.17324028333235264
-0.33131824167145874 -0.07416723797189936 -0.3403108733730022 -0.4545889541888557 0.0968887938293194 0.6464043418951453 0.2558247099678902 -0.24480101843688612
0.6089780633855392 0.09425451530057573 -0.27770225672960785 -0.252265052468013 0.28578972803556985 0.47624733827793136 -2.0851103220964378 0.0039274783336268595
0.6945049102230682 0.1513848811677655 0.5625288131138833 0.12054371556110427 -0.5325359240949389 1.00285412673223 -0.3229863317140373 -0.09232549454918396
0.5421258124252067 0.035428382735637365 -0.12897557185220426 -0.2319770823882287 0.05530175379390867 -1.0268639533572785 0.3462462362725901 0.2096562577201447
0.043152874790318305 0.3787813115482465 -1.2942781822022502 0.813828513500806 -0.13130436070057466 0.8651213468612212 -0.08665482550409422 -0.012014688203763689
-0.20442023858013678 -1.073223813674693 1.5332906729571882 -1.333791523756688 -0.5620563720750951 0.40358729291824635 -0.1474496107689052 0.5477092504521599
-1.9335396441360146 0.11674118164401709 2.235654069807352 -0.6868283428314234 0.5982225381930804 -0.18561465251540435 0.7166153636352162 0.5890983473821878
-0.40955601954882354 -0.13109635945776282 -0.1753563714791526 0.08229015513089277 0.30597986885195566 -0.27453630742559765 0.6156538427467735 -0.3778603946228894
0.7813229085893814 0.17805653278115693 -0.20681038967057094 -0.6929325399526172 0.15261297925834624 -0.09468316112812561 0.1895097971612231 0.0369821546025709
0.48445115136443756 -0.3269439145437928 -0.5200142199960752 -0.25106106711072806 -0.37661711171482004 -0.09270330250061211 -0.7939589755065164 1.0308509522797298
-0.22608057339842297 0.452536437206433 0.16525696319443614 -0.14074383296396004 -0.0777766370199458 -0.8218895317821957 -0.26231623878268856 -0.12804147593853357
1.8989455824419161 0.2502007671354727 0.1003233288052525 0.2470552705870091 -0.009490207353958132 -0.14470570751154355 0.20196251882201843 -0.041128443487100784
-0.06504902909272814 1.390066250574084 0.3918420046714251 -0.1802890023874712 -0.016929734739443283 -0.5315457688741264 -0.546672477773605 0.6842128497138331
-0.9661425329612228 0.012658920112735205 0.5478126231408713 0.005819580623829145 -0.3223973308035117 0.2455314887069595 0.33265569936762124 1.3255819153723072
0.6112913962400287 1.3382788496533249 0.2308572057383179 -0.6857329915212118 0.23695958234920397 0.18615992325523495 0.2285126063008343 0.42701729581827685
0.04373291357803971 0.16418583492984606 -0.12595126127070774 0.531555704200736 0.17750255180382202 0.6882502063623082 0.5166374768321945 0.9050375600790138
0.5481156606701684 0.32819170833285877 -0.026971918741718167 -0.48522864142784883 0.09653875494049079 -1.370084975408599 -0.12537087708823003 0.31916132545477494
-0.6284235707109055 -0.1123207376431828 0.5633078090645498 1.193278656727238 -0.037207242494091936 0.7970774422373152 -0.025936386158712063 -0.7077820507842294
-1.0382944963929894 -2.13674224890206 -0.4925967640180195 -0.5238343721166171 0.4859697331744347 0.0633836722968658 0.19964874461262158 -0.632430723776487
0.52043626032575 0.7298310225848669 0.13027990391493124 0.393866565684552 -0.3195625431838143 0.5087938983993344 0.09444274853664468 -0.04184947673437811
0.47494049478159334 0.4994106618889925 0.03125833513193011 -0.09394401785262935 -0.0021689954258776777 -0.3261333736057758 0.5320721677028454 -0.7038242961089074
0.9643011243863765 1.14582212628326 0.2181121823993713 -0.4354522509419358 -0.049626560740854184 0.13935854410323173 -0.10366265716883816 -0.146633851771858
0.03796421408775387 0.09273248318156589 0.2812302281478879 -0.3473360333664921 0.5180608174423991 -0.8081551310397423 0.24431339827822451 -1.2794812371919466
-1.0450646397388839 0.3356978115566728 -1.0079243298858558 1.582847496911885 -0.2614408615568952 -0.08915153691254096 1.0129012854625992 1.1650480942603438
00000000: cc48 5cbc 3d34 c83f aca8 7f07 746b c4bf
00000010: 0c28 bcc8 fdce dd3f 0c5a 09b5 4977 b7bf
00000020: 65aa 4fb5 85ad cfbf c23a 39af ada3 8d3f
00000030: 690a 9c2a 9ead c63f de96 3125 32df c83f
00000040: 569a dba9 e84a d0bf 1ead cc43 d981 c0bf
00000050: 2a13 e9b7 1eda cfbf 3b75 b603 9802 e3bf
00000060: b71c fa18 e325 e03f 9077 6860 2315 bb3f
00000070: 6e73 fcdd 2449 e2bf a4ed 06bd 1f5b e9bf
00000080: c3ac 6d0f 663a c8bf a9c2 f83d 5477 ea3f
00000090: c8fc 1e33 feae bcbf e0dc a68a 4b6f bcbf
000000a0: f077 9728 bdb1 d53f e400 8474 fed8 d0bf
000000b0: bb8d 76b2 c723 c8bf f966 158b dd2c d03f
000000c0: 87eb e0c7 2c27 c3bf 5557 d6c5 7bea e33f
000000d0: f997 20c1 b0be c1bf df9a 5b48 1ed7 d43f
000000e0: 860b 2e9a 23f7 ce3f 0c53 3db7 febd d8bf
000000f0: de6a 87bf 7967 ccbf 113e b469 7df1 d8bf
00000100: 55a2 bc09 27df b9bf 697d f7b3 58e2 c93f
00000110: 4f6c 893f bfac c83f fd8c d67b 6cf9 bfbf
00000120: 8cdc 34a6 20d3 cabf bb5e 5f82 0401 b1bf
00000130: 227e 4770 e0d9 bbbf c5a9 b079 1316 cc3f
00000140: 2143 652f 8d55 80bf ff67 c74f 83a3 c53f
00000150: 9949 ad53 9d65 b83f fe3e d048 1a5e d53f
00000160: 9e12 8700 64fc e0bf fbe1 2898 52cc d0bf
00000170: 2d18 cba1 da85 ca3f 86db 7e41 41a7 c7bf
00000180: 1539 fd2a 6952 ad3f b1ef 7d81 dc97 cfbf
00000190: 8e14 c0fd b95a cdbf 8d9b b14e 17d0 7c3f
000001a0: 8f68 61d1 43ce ca3f da82 4e5e 6d07 dd3f
000001b0: 9fc0 cc1c 4c0c 873f 7fad e056 1e25 ccbf
000001c0: 87d6 250a 244b 713f fb5e ba52 3313 c7bf
000001d0: b19f 5f3d 6b2c d33f f749 b2e5 b6d1 bb3f
000001e0: 8772 c8ce 9fd6 bcbf 5c0a 9faa ce92 d43f
000001f0: 27d6 ce23 602d ee3f b490 a1d3 bc2c c63f
00000200: 5604 236d 5134 d5bf 0e22 86c5 9ffc b2bf
00000210: 330e e741 a7c7 d5bf 684b d744 fc17 ddbf
00000220: 3b87 d838 b4cd b83f 5ed3 8d28 58af e43f
00000230: 8e87 b49a 6e5f d03f b261 1bc8 a355 cfbf
00000240: 211d 4790 bf7c e33f b95f b75c 1021 b83f
00000250: bf75 abaf dfc5 d1bf 9886 9151 1c25 d0bf
00000260: 2f83 dcff 604a d23f 297d ad1d d67a de3f
00000270: 5aa6 0f52 4eae 00c0 9f93 fa6f 4216 703f
00000280: 4b39 8a5c 6239 e63f 1cb9 dc6c 9460 c33f
00000290: e837 ec6c 3c00 e23f c4c1 12f4 f3db be3f
000002a0: 53da 3dc7 880a e1bf bb93 cfc4 b00b f03f
000002b0: 3713 f1dc ceab d4bf 5aff acc3 a4a2 b7bf
000002c0: d1e0 553b 1859 e13f 7843 6642 ab23 a23f
000002d0: 5e47 8b83 4582 c0bf 4db4 23cf 6cb1 cdbf
000002e0: c09d e9ef 8250 ac3f c2c5 91e5 086e f0bf
000002f0: e6d8 49f9 e528 d63f 83a6 2729 04d6 ca3f
00000300: 66d5 e733 2218 a63f 9be2 5bf8 f33d d83f
00000310: 89c2 070a 5db5 f4bf 6539 4118 e20a ea3f
00000320: eafc 83cf 94ce c0bf b3e4 7af6 12af eb3f
00000330: e1a6 94b9 022f b6bf 6c21 4127 289b 88bf
00000340: 5fcd ab3f 712a cabf da56 d0bb ec2b f1bf
00000350: aace f9cc 5b88 f83f c278 e3c7 3557 f5bf
00000360: 2645 12a5 5dfc e1bf 0690 0acc 5fd4 d93f
00000370: 71ba 07fc a0df c2bf 1214 cd8c d586 e13f
00000380: ad56 1144 c7ef febf 2ce8 4105 c0e2 bd3f
00000390: 5eef d799 9ee2 0140 aba8 cd6e 7ffa e5bf
000003a0: da9e a897 a324 e33f f924 1b8f 38c2 c7bf
000003b0: 18fb d357 83ee e63f e84a 04c7 e4d9 e23f
000003c0: 85e5 7573 2a36 dabf ca74 3ff8 c3c7 c0bf
000003d0: cff7 52dc 1372 c6bf 50e8 11b5 f710 b53f
000003e0: 7306 7d96 2c95 d33f 6648 7dbb 0092 d1bf
000003f0: be21 08b0 6fb3 e33f 45f9 565d dd2e d8bf
00000400: 4439 80e6 9800 e93f 272e 9174 8eca c63f
00000410: d3d6 0d4a c378 cabf 54c8 addc 802c e6bf
00000420: 6b0b 6e75 d288 c33f 72f6 86d8 273d b8bf
00000430: 351e 8a66 db41 c83f 0c79 1b31 53ef a23f
00000440: e3aa e766 3f01 df3f 32e0 252b a6ec d4bf
00000450: a7d1 8adc f4a3 e0bf 2886 2270 6211 d0bf
00000460: e076 7ba8 7e1a d8bf b1a8 7854 67bb b7bf
00000470: 2051 45a7 1c68 e9bf 6878 7191 5d7e f03f
00000480: 6eea 804e 35f0 ccbf fe32 8363 5bf6 dc3f
00000490: d39d 2de2 2327 c53f 8ed1 d8d7 e403 c2bf
000004a0: 64be 6470 2be9 b3bf b0bc 7d46 eb4c eabf
000004b0: 0902 b20c cac9 d0bf 6102 d8bf a963 c0bf
000004c0: 178c 57c3 1462 fe3f 5cfb 1114 4a03 d03f
000004d0: ef91 3e28 caae b93f 9ae1 bcd1 819f cf3f
000004e0: 4b75 bd11 9a6f 83bf 5c3f a774 b785 c2bf
000004f0: 88de ad66 e8d9 c93f 73ca 6c8f c90e a5bf
00000500: 70fe 969c 0da7 b0bf 13d3 d71b b63d f63f
00000510: 89d2 d07c f013 d93f 6e94 8ac4 b513 c7bf
00000520: 87b9 2444 0756 91bf 8f87 b445 6c02 e1bf
00000530: 4226 b547 577e e1bf 98c3 a058 12e5 e53f
00000540: 4cfa cabe a3ea eebf 9351 187f ebec 893f
00000550: 843b 9756 ae87 e13f 7fe1 4ac7 45d6 773f
00000560: 079a 076a 28a2 d4bf 103a 1169 936d cf3f
00000570: 0b2a 6721 3b4a d53f ef16 eb61 9535 f53f
00000580: cfaa 65f9 b28f e33f 5208 4315 9769 f53f
00000590: 1394 589a ba8c cd3f 32e6 8b50 86f1 e5bf
000005a0: 7bf2 540c b154 ce3f 6282 1a9f 16d4 c73f
000005b0: 5295 64ad e63f cd3f 326a 175a 4054 db3f
000005c0: b827 2713 2964 a63f 04bd be9b 0a04 c53f
000005d0: 1b19 06c2 2b1f c0bf d06b b11b 8102 e13f
000005e0: 681b 7a53 67b8 c63f dc52 f94b 2506 e63f
000005f0: 413b 5c51 4b88 e03f ab1c 4654 11f6 ec3f
00000600: 2f1f a0da 298a e13f 75e9 86cb 1701 d53f
00000610: 4fcb 9fd3 869e 9bbf c0f7 806e fc0d dfbf
00000620: 5f16 448b c3b6 b83f 32ef 2139 deeb f5bf
00000630: 087e 7b24 270c c0bf 387b be9f 236d d43f
00000640: eda4 87bf 0b1c e4bf 950e d746 0dc1 bcbf
00000650: da6f 3019 9e06 e23f 6388 5a5c ab17 f33f
00000660: 8478 5fe3 d30c a3bf 323c 598d a881 e93f
00000670: 3cf8 4f69 118f 9abf ea0c 1a8b 26a6 e6bf
00000680: b0fe 99b0 da9c f0bf 7120 f851 0c18 01c0
00000690: 23a9 e493 b486 dfbf bd5e 184d 40c3 e0bf
000006a0: 6e1f b5cb 201a df3f 278c 9d8f e939 b03f
000006b0: af3a 660e 178e c93f 4061 735b df3c e4bf
000006c0: 6c0d b8f1 69a7 e03f b576 b396 c65a e73f
000006d0: e300 520b 03ad c03f 5597 a61c 1c35 d93f
000006e0: 8811 0074 b673 d4bf 91f1 4024 0a48 e03f
000006f0: 672a 4f64 662d b83f 7094 db6b 4b6d a5bf
00000700: 1b83 28d1 6c65 de3f 5e90 0523 58f6 df3f
00000710: d1f3 3cae 1701 a03f 4cf6 5414 b70c b8bf
00000720: 0a0e 6b8d b6c4 61bf 5b57 7183 5edf d4bf
00000730: 55a8 ec35 bc06 e13f 1260 bd87 ba85 e6bf
00000740: 5789 1708 8edb ee3f 6fb7 f694 4955 f23f
00000750: b2da 2199 19eb cb3f 07f9 301e 73de dbbf
00000760: c633 ca0e a768 a9bf 0ab8 ab32 80d6 c13f
00000770: 704b 5bca a289 babf c25e ece6 e5c4 c2bf
00000780: c2b9 d9a3 0b70 a33f 8fac 8ae6 50bd b73f
00000790: ceac 2212 adff d13f 4003 02ea c03a d6bf
000007a0: d621 8847 f493 e03f 1421 3d26 68dc e9bf
000007b0: 3c30 ca53 a945 cf3f 485c 5951 c178 f4bf
000007c0: 0727 1eb3 95b8 f0bf 2a61 7eac 127c d53f
000007d0: 4d3d 1b43 7520 f0bf 10ac 9ce5 5753 f93f
000007e0: 3b65 8e73 72bb d0bf a870 6d97 a2d2 b6bf
000007f0: 2a36 72fa d734 f03f 47d8 7178 09a4 f23f

net.2.net.0.bias f8 [30]
-0.01000483176675107 0.3872683209120504 -0.03952769139632701 0.43433361719772906 0.1846007477927024 -0.08527209437868961 -0.24815513265818437 0.7102155522095187
0.4588121624651188 0.0580649114227009 0.9468888674269093 -1.2705900348178507 1.159527430491514 -0.9740074252917452 -0.4984001628193556 0.08561908099702696
-0.6262587142273666 -0.31404725332712746 0.19059479661038006 0.22477509698076154 -0.5382404398249686 0.19465805728418067 -0.6432789733023592 0.16140934695066939
-0.2662948820143106 -0.11807189163406048 -0.41473709972835904 0.049047429188815723 -0.1702901255686354 -0.02526123301360082
00000000: 4fe2 ebc9 697d 84bf 8f05 4611 01c9 d83f
00000010: 49ce aa3b f93c a4bf 71ba 5a3a 1fcc db3f
00000020: 4c1c 4b4f ffa0 c73f 852e 9e58 64d4 b5bf
00000030: 19fc 8c21 8cc3 cfbf ff36 3bf7 15ba e63f
00000040: c2dc 32b0 2d5d dd3f 1416 361f afba ad3f
00000050: 1771 d1e1 e94c ee3f a2a8 6237 5654 f4bf
00000060: 5b6a 8ca2 6c8d f23f 000e b69e 112b efbf
00000070: 5255 e8cb c9e5 dfbf efb9 cbd0 21eb b53f
00000080: 2c21 0eb7 4f0a e4bf ac12 9ca6 5919 d4bf
00000090: 795b 1d09 6965 c83f a669 3e2d 6ec5 cc3f
000000a0: 49da cd03 4439 e1bf 261f f822 8eea c83f
000000b0: 0838 11c9 bd95 e4bf eefe 35bd 0fa9 c43f
000000c0: 3efe 55b0 f90a d1bf 4628 25a1 f539 bebf
000000d0: 385b f179 0d8b dabf e93e a3a0 be1c a93f
000000e0: 2b13 131c 11cc c5bf fba6 99a6 14de 99bf

net.3.weight f8 [1, 30]
1.0984965788727283 -0.4392379524762805 2.7864044800762864 -4.396599919565225 -1.6234959087842213 4.474317486593597 -5.150342071925257 -0.7999316330117948
-5.385698822470141 1.6654633724310381 -0.5100389277275172 -2.49019735741851 -0.27057451887106454 0.5785237683113357 -2.5512335959334953 -0.2859496595020087
0.029072164085586317 -1.0057168103180953 -0.05972626384526992 1.412833187501258 0.712170608121687 -2.6539984651582005 -5.021621956045744 5.5244526178584215
4.68536132985697 0.9162124590155635 -0.0020438152606561556 -2.0846482867504696 1.982449232224664 -1.161658432879588
00000000: 886b 1026 7193 f13f 520c 4380 791c dcbf
00000010: 22d8 9a6e 8e4a 0640 f783 104a 1e96 11c0
00000020: 40b0 96d8 d6f9 f9bf 965c b37b b3e5 1140
00000030: 0687 a845 f399 14c0 ff49 5a39 0a99 e9bf
00000040: ba75 d2a1 f48a 15c0 516f d4eb bca5 fa3f
00000050: dcd9 4828 3d52 e0bf c295 9597 eceb 03c0
00000060: 76a8 6bc9 1751 d1bf 4563 1b47 4483 e23f
00000070: 3eed d728 ed68 04c0 fa42 f7cc ff4c d2bf
00000080: 1ddb e2e7 17c5 9d3f 92a8 9582 6a17 f0bf
00000090: b1fb dadb 7094 aebf 6857 f0f8 f69a f63f
000000a0: 32c3 e103 1aca e63f cae8 1b8c 633b 05c0
000000b0: 3a5e e810 2416 14c0 9703 681b 0a19 1640
000000c0: 0bb7 465c cfbd 1240 531b 75ca 9c51 ed3f
000000d0: 64c2 83f6 30be 60bf ab0b ba14 5cad 00c0
000000e0: f329 a6af 1cb8 ff3f 7372 2527 2796 f2bf

net.3.bias f8 [1]
-0.1566687373041581
00000000: e473 839f b80d c4bf
