Poisson/poisson.pt (torch, 46919 bytes, 10 tensors)

net.0.Ls.weight f8 [50, 2]
000000 a6 f0 83 39 97 55 b0 3f 43 48 cb 5a 62 66 b6 3f
       0.06380601076301903 0.08749975887920507
000010 06 51 b3 9f 93 12 da 3f bf 5c e2 87 ba 12 d8 3f
       0.4073838290762669 0.3761431052202617
000020 e5 33 75 b1 c0 a7 d1 3f 72 b8 fa d9 f4 1a db 3f
       0.2758638127314142 0.4235202912049153
000030 1c 49 84 5e 77 dc d7 bf e7 1b 01 96 7d c4 b4 3f
       -0.37283119421148725 0.0811232081624521
000040 b6 e6 4a 2e d6 10 b0 3f 8a 69 1e bb 05 96 c9 3f
       0.0627569067973138 0.19989081989917806
000050 1c ad 6d 66 be 96 d1 3f 7a fa db 1f 8b c9 c1 bf
       0.27482566836143163 -0.1389631181300109
000060 65 a3 f0 55 98 6d b1 bf 1f ba 5f b6 4d be dd 3f
       -0.06807853792328229 0.4647402077670523
000070 16 5c a8 ac 45 71 c7 bf 3f 1a 43 50 84 95 d7 3f
       -0.18314429216908995 0.36850078428361493
000080 23 57 4b fe 06 ea cf 3f a8 3c 08 f4 a0 50 c3 bf
       0.24932944695199763 -0.15089809337266513
000090 60 ad 7d 79 1f 54 d3 bf 01 e7 c9 87 a7 38 db bf
       -0.30200945724819483 -0.42533291111577404
0000a0 5b 01 21 51 0b 15 a7 3f 71 40 a5 d3 f8 e7 d1 3f
       0.04508242955535265 0.2797834460116127
0000b0 51 a2 b5 1f 67 40 b6 bf d6 6d 87 e2 21 31 db 3f
       -0.08692020916135702 0.4248738014409502
0000c0 e9 6c 61 8c 83 14 cd bf c9 5e 72 aa 95 f1 a4 3f
       -0.2271885333492272 0.0409056444706813
0000d0 ef a8 e2 4b d3 ba dc 3f 69 c8 54 33 79 1e cd 3f
       0.4489029160564674 0.2274924755707304
0000e0 02 be 24 7a d2 49 a4 3f b1 0a f8 56 de 35 da 3f
       0.039625718507860355 0.40953787320192264
0000f0 40 6e 44 10 0e c1 b1 3f de 0c 80 e1 60 44 c9 bf
       0.06935203454161698 -0.1973992444110086
000100 4c 04 99 db a3 8b a3 bf d8 b7 32 c4 ca a2 e2 bf
       -0.0381747441829324 -0.5823720771784293
000110 e1 1c aa 8f d8 bc 95 bf d1 d6 31 55 91 da e0 3f
       -0.021228202599130056 0.5266806282004045
000120 2f 29 58 c7 f9 8f a8 bf b6 b0 af 5a 81 9f dd 3f
       -0.04797344740298325 0.4628604302986433
000130 81 8a d6 3f 03 57 d7 3f bd b2 a9 80 59 62 d6 3f
       0.36468583330330523 0.34975278439268803
000140 82 39 82 5c bb a7 d5 3f 98 7d 85 01 a6 72 cb bf
       0.33836254152347334 -0.2144362933567947
000150 20 79 dd 8b d7 23 d0 bf b8 9c 3c 72 ee 11 e3 bf
       -0.2521876207228093 -0.595938895338711
000160 78 a8 1e c4 5d 2b 84 3f d4 ff 5a c0 07 8d e3 3f
       0.009848339603042641 0.6109656102125833
000170 f4 14 68 40 a1 37 da 3f 56 d9 92 58 1e 43 e1 bf
       0.4096453789682777 -0.5394431810334861
000180 dc d7 72 ed ff f1 c1 3f aa 8a 0f ff 6e ad cd 3f
       0.1401977452675841 0.23185527280937396
000190 f7 4d fb 48 80 cc e9 bf 8c 41 52 8d a8 2d de 3f
       -0.806213514845182 0.4715367679682678
0001a0 d5 5f 73 51 57 b2 da bf 44 7e fc 81 ff b5 d7 bf
       -0.4171350760857398 -0.370483281078098
0001b0 c3 8f 1c 9a f7 f2 9b bf 4a 63 81 fe c5 58 e7 3f
       -0.02729403379557006 0.7295865984734544
0001c0 bc b0 e8 0a 81 de bf bf 75 42 e1 71 80 39 d1 bf
       -0.12448889271098812 -0.2691346275433156
0001d0 55 65 75 42 0f 67 c8 bf 36 0f 4a ac 99 35 cf 3f
       -0.190645129633405 0.24382325089038098
0001e0 ba 0c e6 61 95 b7 b5 3f e3 80 1c 49 b6 ae da 3f
       0.08483251228431046 0.41691357745913943
0001f0 4e e2 8c de 6f 31 d6 bf 25 d8 66 e9 09 32 e8 3f
       -0.34676739438467485 0.7561082419040345
000200 0a a0 2d 41 e8 25 c1 bf ec fe 18 65 6b 7a d3 3f
       -0.13396933729677613 0.30434689400497805
000210 e1 94 b4 94 88 1c e6 bf 1f ef 06 0c f2 44 d2 bf
       -0.6909830955889015 -0.28545809912223946
000220 8e 70 1c 9e 90 f6 cd 3f 3d 19 be 83 89 12 df 3f
       0.23408706398266016 0.4855064188526688
000230 22 28 50 e4 3b c6 df bf 33 b8 30 93 1b 73 ea 3f
       -0.49647424026682263 0.8265512347040896
000240 9e ff 5e e9 0a 46 c4 bf 23 44 0f 96 7a 23 d6 bf
       -0.15838753123352672 -0.34591545728932455
000250 55 df f0 02 5d 44 d8 3f 80 84 1b 7d b5 f1 d3 bf
       0.37917256629179025 -0.3116277429344976
000260 ba 07 cf e8 3b 7c d8 bf 50 60 3e 10 11 8e da 3f
       -0.3825826428911757 0.4149210604314293
000270 82 4c 32 7f bd 09 a5 3f f1 b7 80 68 53 a3 e4 bf
       0.04108993699733167 -0.6449372330732769
000280 87 5d ed ec d7 c1 dc 3f 94 ac 4b 87 49 ed a9 3f
       0.4493312658064145 0.05063848282392161
000290 76 b3 5c 15 97 7e da bf ed 15 d2 58 34 c0 dd bf
       -0.41397645078796275 -0.464856230486787
0002a0 1d 7e d1 2b eb bf b1 3f b2 d5 aa ff 7a 45 da 3f
       0.06933469600470983 0.4104907509566501
0002b0 63 1f 3e 04 cd 7e d8 3f 9a 9b 49 a4 90 a0 b3 3f
       0.38273930944750684 0.07666877757001914
0002c0 54 88 a2 4c b2 c1 e1 bf af 7b 6d 5a b3 36 c4 bf
       -0.5548945900702713 -0.15791932979024412
0002d0 13 e3 1c 5e a7 22 c1 3f c1 10 91 01 5e 97 af 3f
       0.13387004943231115 0.06170171517490664
0002e0 1a cd f0 50 1a f5 98 3f 4f a5 94 c8 1f 5c c3 3f
       0.024372492971633887 0.15124890607811856
0002f0 cb b9 e4 8d 58 29 ca bf 9f 3d e0 25 5e 42 c8 bf
       -0.2043867771948967 -0.18952538346682687
000300 30 26 c1 a1 0b a0 d5 bf 0d b4 46 a1 26 a2 cd 3f
       -0.3378933982499772 0.23151095270932878
000310 62 15 1d 12 e3 6d dc bf ea 5a bc 09 24 5a e4 3f
       -0.44420696991831765 0.6360035123969656

net.0.Ls.bias f8 [50]
000000 03 4e cb 6b a5 b5 c2 bf 1f 09 1e 34 96 e4 b8 3f
       -0.14616840136896778 0.09723795673747702
000010 03 d3 f5 8a 8d 1f c4 bf 67 d7 2e 27 c2 d4 92 bf
       -0.15721291814011104 -0.018389733926333387
000020 90 fa ad fc 3b f8 b8 bf 6b 14 fc 57 08 cc dc bf
       -0.09753775519309671 -0.4499531611657576
000030 76 d5 2f 82 3b aa d8 3f 94 47 b1 fd a8 ed 8d 3f
       0.38539016450462016 0.014613456956940309
000040 66 05 d4 d4 7b f1 cd 3f 82 f4 b3 6c 93 d6 a4 bf
       0.23393199817659677 -0.04069958402576736
000050 96 12 24 0d 96 b9 b5 3f a3 a8 96 06 ad 4e c8 3f
       0.08486306973288502 0.18990099736885666
000060 be e5 8e cc be 0b bb bf 01 4b 68 eb 83 af c4 bf
       -0.10564796918961059 -0.1616063022089165
000070 41 ae 36 d0 1b 32 71 3f 61 ec cf 10 18 a8 80 3f
       0.004198177953564975 0.008133113873546262
000080 03 62 40 cd 43 5c 75 3f 73 f7 30 a0 60 72 c5 bf
       0.0052149437433617355 -0.16755302259292257
000090 b9 00 29 07 f2 47 81 bf 4b 29 9e 2a ca 89 ba 3f
       -0.008438006251822438 0.10366500416254103
0000a0 b1 58 ce 54 3f 7e b3 3f 10 95 7b 7c 90 81 af 3f
       0.07614513225994092 0.0615353729206537
0000b0 03 bc a6 64 f1 5c c1 bf 09 33 f1 1e d1 9c c2 3f
       -0.1356488934956986 0.1454106713375938
0000c0 79 fa 14 59 d8 2b ba bf 3a 28 e6 37 39 ec d8 3f
       -0.10223152327396602 0.3894179387940572
0000d0 f7 d4 9a fd 3d 10 c7 bf d2 3a 42 d5 49 73 49 3f
       -0.18018317111060586 0.0007766829026126471
0000e0 e6 82 84 7b 72 83 af 3f a0 b3 17 eb f3 b0 bc bf
       0.061549737527689705 -0.11207508554043821
0000f0 8b c0 40 01 d2 5a b8 3f e5 e2 5f ce ba a2 d0 3f
       0.09513580828275019 0.2599322333694956
000100 b9 01 53 8a b0 09 c9 bf bd be ce 06 d2 8c 59 bf
       -0.19560820345033195 -0.001559453109830785
000110 b3 39 ac 46 81 01 b9 bf f7 81 a4 9a 94 b9 cf 3f
       -0.09767921424302166 0.24785096693905448
000120 18 a8 9e e6 d1 38 ba bf 84 dc 16 8a 8e 32 a8 3f
       -0.10242950325360345 0.04726071773205212
000130 e3 3a 4b da f3 d7 bf bf c4 57 13 2c ee 12 b2 bf
       -0.12438892440261955 -0.07060135437072207
000140 d3 2a 41 06 9c fa b1 bf 36 b3 73 ac ce a5 d2 bf
       -0.07023024704646312 -0.29137007561694206
000150 32 7e cd 5f a6 fa c8 bf 5a 6f c2 c3 d7 c8 e1 bf
       -0.19514922788492722 -0.5557669471195184
000160 48 bd 19 94 23 48 c3 3f 2b a9 47 f5 9b f8 db bf
       0.15063900691482446 -0.43704890206449204
000170 f9 ee ce d9 a1 91 cb bf e6 c0 68 53 b6 1b d3 bf
       -0.21538184294865184 -0.2985664190810112
000180 ba ee 9b ca 7f d5 8f bf 28 b8 9f 40 ef 12 cf 3f
       -0.0155439361292261 0.24276533751930285

net.0.net.0.weight f8 [50, 2]
000000 95 3c cd ec 02 26 da bf 55 b1 ca 89 d1 9a a7 3f
       -0.4085700333134324 0.04610304648426459
000010 83 b7 f4 d4 ef ed e0 3f cb b0 33 c7 4f 19 dd 3f
       0.5290450248046316 0.45466989949524067
000020 9f 3b a3 9c 92 c3 cc 3f c2 bc b5 41 a8 1d da 3f
       0.22471840523072914 0.408060135049663
000030 2c 33 09 43 28 82 81 bf eb e5 45 31 b1 40 d0 3f
       -0.008549036546492049 0.253948495977595
000040 a8 e7 a2 e7 d1 1a d3 3f 36 22 c1 94 5c 59 d4 3f
       0.29851195927369156 0.31795420195388446
000050 f5 b3 7b a2 4e 13 c4 3f b5 5b 06 d8 75 6e c7 bf
       0.15683920797110287 -0.18305848167503105
000060 2d c4 e9 e0 cf 37 d1 3f af d2 a7 18 40 b6 dc 3f
       0.2690314957063176 0.44862368018884075
000070 32 e0 ad 93 df 69 e5 bf ec 88 9b b4 a2 8c cc 3f
       -0.6691739925727289 0.2230418569443552
000080 04 c0 de 81 e2 36 dc 3f 48 75 cf 4a f4 23 c8 bf
       0.4408499019873491 -0.1885972371373248
000090 aa 7c d8 af 58 c7 d0 bf f1 17 47 da 79 77 c1 bf
       -0.2621671406977365 -0.13645861776438964
0000a0 91 32 eb a9 be 00 b3 3f cb 5e c3 4b 2c e5 cb 3f
       0.074230114444797 0.21793130587933826
0000b0 1c a2 1a d4 6b 9a 73 bf 6f 9d e2 ac da 97 d2 3f
       -0.004785939412308451 0.29051844485589745
0000c0 6a d6 95 ce de 0f d2 bf cb c3 ee 2c 38 be d7 3f
       -0.28221864866586677 0.3709850729747443
0000d0 f3 5c 76 2a a8 35 d8 3f 4c aa 12 fa f2 84 bc 3f
       0.3782749571486896 0.11140364270492248
0000e0 4c f5 be 97 cf 86 d4 3f b7 00 19 50 5b ff dd 3f
       0.32072820490778464 0.46871073553121384
0000f0 c5 a8 ab 2d 3c 08 d4 bf d2 2a aa 4b cd 3d bb bf
       -0.3130026288987547 -0.10641177270205596
000100 dc b2 65 d9 d0 4a d0 bf ca cc a0 f2 2c 63 db bf
       -0.2545663950939294 -0.42792819685128036
000110 54 e8 a7 75 5e 5e cb bf 07 87 af ce 98 32 70 bf
       -0.2138174128047604 -0.003954502967617796
000120 63 9c 3b fc 48 1a c1 bf c0 20 ea 56 96 2d cc 3f
       -0.13361465755517363 0.22014121288180455
000130 89 01 e5 ce ca 78 9e 3f 0a 90 2c d7 b2 9f c0 3f
       0.02975766074928424 0.1298736143736508
000140 2f 42 4e d2 66 c5 db 3f fd 3a bb 0b 40 ef 97 bf
       0.4339234403387619 -0.02337360450365632
000150 3a 54 7d 0f 60 80 9b 3f eb d6 2b 54 46 d7 d3 bf
       0.02685690016308604 -0.31001432628487063
000160 4d b3 7a 43 83 4f d4 bf 5d b1 64 cc 7b 43 d9 3f
       -0.31735307302260624 0.3947438713101031
000170 e5 07 c8 8a 6e 2b c0 3f f8 6f 65 1c 24 9c d3 bf
       0.1263254335063372 -0.3064050938899068
000180 71 02 af 08 6b 03 d1 3f 61 00 87 a8 38 eb c3 3f
       0.26583362434397545 0.15561588505625237
000190 64 13 75 4f 10 b6 e3 bf 71 ba b9 b8 87 3f dc 3f
       -0.6159745742703362 0.441377573390958
0001a0 4d 9f fd fe 9b e6 9e bf d4 2a b0 b4 7f 75 c6 bf
       -0.030176579893491696 -0.1754607803598761
0001b0 6d 66 2c 4d b0 49 d1 bf 9e 38 37 d4 ef 07 c9 3f
       -0.27012259994953675 0.19555471288771725
0001c0 19 48 c3 87 73 c6 ce bf 07 ce cb 87 d1 19 cf bf
       -0.24043125275653734 -0.24297541742963366
0001d0 c3 c4 1a f1 78 f4 d5 3f 9f 23 83 3e f9 82 cd 3f
       0.34304641290061627 0.23055949737888867
0001e0 0c 41 cf 0a d7 07 d0 3f 95 49 37 0c 53 30 d2 3f
       0.25047851615546857 0.2841994876190708
0001f0 12 1f f4 87 56 b1 d2 bf 0c b2 da 3e 8e a1 e0 3f
       -0.29207385327070867 0.5197211482641833
000200 91 cf d2 f4 fe 14 c1 bf 65 c2 ad 48 da 8a d8 3f
       -0.13345324472686262 0.38347489450010236
000210 a8 c7 a6 c3 53 e0 e1 bf 5b f1 65 ae a3 cd c4 bf
       -0.5586336919134185 -0.16252561584031863
000220 b8 8e 1f fd dc e9 e1 bf 75 03 d8 d7 a3 08 c4 3f
       -0.5597977584661384 0.15651367224929982
000230 9a 62 89 a8 51 9c e1 bf ee ea f3 72 46 53 de 3f
       -0.5503319064838081 0.473832714327428
000240 9e 00 f9 0e 34 d0 d3 bf f3 d5 90 79 a6 e3 91 bf
       -0.3095827242104948 -0.01746997944811386
000250 e8 2c 6a 86 e9 ec c9 3f 4d 17 db 89 a4 10 d3 bf
       0.2025424867937098 -0.29789079153521386
000260 5f e0 fd 8b 22 2a c6 bf 2b ce d8 fe fc c3 d2 3f
       -0.17316085658581223 0.2932121742953508
000270 91 69 b6 85 ed 06 da bf 3e 31 d0 c4 ac fa c1 bf
       -0.4066728406702618 -0.14046249017736473
000280 4e c3 c5 ac f8 98 b5 3f cc d8 48 c3 bc 99 c5 3f
       0.08436540811613932 0.16875419173601924
000290 12 50 67 36 ef b3 d2 bf 1a 32 b0 da 54 b0 d9 bf
       -0.292232325676424 -0.40138741832996205
0002a0 ce 86 ab 69 cb 5c cb 3f 75 fd 36 60 d8 8a c7 3f
       0.213769365879719 0.1839247197913029
0002b0 bb f3 ed 2f 2c ee b2 3f 1a cb 04 46 60 b0 a0 3f
       0.07394672556070152 0.03259564261170152
0002c0 e6 ee 13 fd f3 72 b9 bf dc 0f ae 52 cd b9 cb 3f
       -0.0994102948060874 0.2166077283583253
0002d0 d1 31 ae ee e5 24 e0 3f b4 73 f4 d7 02 97 d3 bf
       0.5045041715362065 -0.3060919865545728
0002e0 70 42 4c b0 04 43 b2 bf cd 15 80 ea e1 35 d8 3f
       -0.07133511833331752 0.3782887258570014
0002f0 4f ba 03 00 23 a5 de bf 99 48 91 20 1c b8 d0 bf
       -0.4788291454450801 -0.26123717480107583
000300 23 84 9b 2a e7 d0 a5 3f 01 26 4d 01 9a fb d5 3f
       0.042609428359135636 0.34348154189191865
000310 c7 cc f7 16 ff 77 b4 3f 4e bb 5e 05 2a f2 a5 3f
       0.07995600043050209 0.04286319079925836

net.0.net.0.bias f8 [50]
000000 dd 6b e1 be 87 cc c3 bf 6f 96 a7 d8 c2 67 c7 3f
       -0.15467926807727297 0.18285403803672604
000010 eb 8a 28 ad 3f 26 c7 bf 47 9e 1c 46 51 ab 98 bf
       -0.18085475878714105 -0.024091024307521882
000020 09 b4 51 ca e2 63 b5 bf e4 3e d2 fd 61 1b dd bf
       -0.08355538787300544 -0.4547963122104035
000030 d6 7b 8c 9d fc 25 db 3f b4 83 94 48 43 2b ae 3f
       0.42419352899190466 0.05892381916988346
000040 92 5e e1 8b ae 24 ce 3f 27 58 fd 3b c7 69 ab bf
       0.23549444036574535 -0.05354139907164806
000050 1c c7 06 27 a6 b8 b8 3f a3 fc 47 a1 86 26 c9 3f
       0.09656752064509216 0.1964882171159604
000060 15 25 15 2f 46 80 b7 bf 1b 2b 4a cd e1 a2 c4 bf
       -0.09180105828740566 -0.16122076534187432
000070 43 b6 fb 63 da ca b2 3f 98 0c 46 79 3e 15 a7 3f
       0.07340779248235045 0.045083954147252914
000080 66 16 4d bc 86 e3 83 bf 93 53 31 63 96 d6 c6 bf
       -0.009711315747732385 -0.17842368930237437
000090 37 ec f5 17 2e 1d 64 3f f9 74 c4 6a 3d 20 bc 3f
       0.0024553203836013243 0.10986694199205606
0000a0 47 48 90 d8 5c f7 b5 3f af ce a5 87 97 7c b2 3f
       0.08580570494839988 0.07221362172804889
0000b0 92 14 f4 28 b0 0c c0 bf 80 1d 49 97 2c 2b c4 3f
       -0.125387210842892 0.15756757151596545
0000c0 88 fd 4d 50 67 10 b6 bf 25 6b 6e 16 84 10 da 3f
       -0.08618779860079517 0.40725805464323833
0000d0 d6 bd c6 20 4a f9 c7 bf 57 73 98 03 c9 fc 71 bf
       -0.18729521370322172 -0.004391465388405922
0000e0 b2 a0 8b ab 02 90 ad 3f e1 a6 2e 89 b8 67 c0 bf
       0.05773933738766014 -0.12816530893660796
0000f0 9d ab 9c c8 07 28 c0 3f 57 0b 29 c7 6b 35 d6 3f
       0.12622163100726605 0.3470105595517245
000100 28 3c cc 5b 11 0f d0 bf 10 60 65 ea 0c ba 8c bf
       -0.25091966595295156 -0.014026738074491646
000110 4e 52 13 ef db 71 b8 bf ef dd ef a9 22 d0 d2 3f
       -0.09548735224536495 0.29395357699783536
000120 10 b2 06 31 a1 40 b9 bf 27 5e 98 2f 7c d4 a2 3f
       -0.09864242026259995 0.036777382669410046
000130 11 35 e0 5c bd 7a c0 bf da 9a 69 b4 71 7e ab bf
       -0.12874571833564422 -0.05369906737614878
000140 a7 3b 0e c7 36 e9 b0 bf c9 05 93 97 f6 b6 d4 bf
       -0.06605856284862331 -0.32366719057253285
000150 ed 6b 49 b3 7b 02 c9 bf 32 01 20 39 0e a9 e1 bf
       -0.19538828138578826 -0.551886664936353
000160 68 da 35 98 a9 04 c1 3f 4c 3b 27 89 3a 6e dc bf
       0.13295478756090806 -0.44422782319900445
000170 27 d6 17 e8 d6 62 ce bf e2 b1 c1 ca 74 78 d4 bf
       -0.23739134152099092 -0.31985206413699363
000180 fe 7b c7 6e 50 18 a6 bf 48 ce 79 28 5e 3f d0 3f
       -0.043154252550941394 0.2538676638862154

net.1.net.0.weight f8 [50, 50]
000000 7f b7 a1 95 37 d7 d6 3f 14 28 d0 af 9f 30 c6 bf
       0.35688581097098643 -0.17335887989639842
000010 d5 b2 2f f6 da 78 cb bf 97 ef 64 9f 93 8d da 3f
       -0.21462571163956193 0.41489115300986995
000020 87 b7 70 21 96 02 aa bf 30 7e 15 e1 b0 de c3 bf
       -0.05080098303038399 -0.15523348799159598
000030 4d 87 f0 2d 43 e2 e0 bf c9 25 23 76 0b 7d b9 3f
       -0.5276199242837066 0.09956428178988753
000040 d3 43 0e 39 61 26 e2 bf 8a 21 01 f4 55 99 d4 3f
       -0.5671850313539103 0.32185887173229644
000050 f8 e8 9e 8c dd f5 ca bf 88 68 a4 ea b7 68 c7 3f
       -0.21062821737525161 0.18288325268878602
000060 50 c6 9a d6 35 54 aa bf 97 3a f9 06 de a5 d4 bf
       -0.051423723646973785 -0.32262373620043533
000070 64 11 0c e1 cd 13 c2 bf 1a 0d 83 36 2a 62 d3 3f
       -0.141229376684474 0.3028665096610027
000080 1f 3e 6e 3b 6a 91 d0 3f c7 92 60 67 3e f3 cb 3f
       0.25887542537472713 0.21836071059910564
000090 70 e1 91 60 81 f3 d2 3f 64 04 d1 12 8d 75 cb bf
       0.29611238890313185 -0.21452487391255481
0000a0 e1 20 e4 14 a7 ff d2 bf 9a 94 ef 1e 90 8a c1 3f
       -0.29685380020283786 0.13704110632457828
0000b0 87 af 87 c6 bc 04 cb 3f 9e 3d e7 e5 e1 3d d3 bf
       0.2110820741066812 -0.3006520028256662
0000c0 b7 f5 ac 2b a7 49 c4 bf d6 82 ad a3 e9 03 d0 3f
       -0.15849771149252742 0.25023880943448995
0000d0 4d 6d 41 aa f4 17 c4 3f 9b a9 3e dc 73 28 cc 3f
       0.15698107064495517 0.219984514752764
0000e0 dd 04 f0 08 ed d5 a3 bf 04 53 96 c0 55 ce b9 bf
       -0.03874150022603271 -0.10080467178188363
0000f0 d0 32 c6 c9 8b 14 ca bf d5 e2 8f b2 c3 07 7b 3f
       -0.20375201561218725 0.00659920162524293
000100 59 83 54 11 c8 83 e1 3f 7c 3d 07 58 61 0c e0 3f
       0.5473366106490217 0.501511260919798
000110 1e fb 6d da 14 4c b1 3f d9 b6 57 42 3d f4 d8 3f
       0.0675671609187529 0.3899071834447177
000120 c5 6a c7 87 c6 dc d8 3f a2 e1 2f a5 b3 d5 d4 bf
       0.38847506770768475 -0.32554331904932543
000130 6a 6e bb a5 56 b8 d1 3f 35 96 e8 d6 a2 15 d2 3f
       0.27687612709789866 0.2825705622402411
000140 8d 34 b6 9b ea 40 d2 bf dd 4c c3 45 83 31 e3 3f
       -0.28521218496536777 0.5997940409237362
000150 18 b4 58 f9 ab d9 cc 3f ab 5d ef fb e1 c8 d0 3f
       0.22539281535264943 0.2622609100630721
000160 f7 af 98 e6 9e b3 d1 3f 3c 39 7e 30 7b 2f 79 bf
       0.2765881778639136 -0.006148797234244715
000170 f6 44 93 97 48 23 c7 3f 6d a2 03 60 03 75 da 3f
       0.18076426888595848 0.4133919179571766
000180 24 1a 9c 21 cb 17 d0 3f 89 21 17 e4 12 10 b8 bf
       0.25145223886684875 -0.09399526661503023
000190 4c cd b3 a8 1e a1 c3 bf 99 b2 2a 3e 00 fd c4 bf
       -0.15335448491496562 -0.16397097621429138
0001a0 ae b9 31 84 ce 6a ae bf 07 e4 38 d3 95 7a 9e 3f
       -0.0594086204881593 0.02976450063417604
0001b0 83 06 52 00 e8 73 a1 bf 61 0f 09 e8 ab d6 ad 3f
       -0.034087419547188545 0.058278438639290504
0001c0 39 da 0c 85 0b 1e b4 3f cd 49 43 f2 8b fd b9 bf
       0.07858345030113235 -0.10152506508465038
0001d0 84 40 1e e4 cb aa b9 3f d1 0c 7d 9c 78 84 d1 3f
       0.1002623969964152 0.2737103965957433
0001e0 7b e4 9f 70 3c e0 c3 bf 94 c2 15 71 8b 81 c6 bf
       -0.15528064250228 -0.17582839032867936
0001f0 7f 9a f4 f3 e7 d5 c3 bf 8a 45 c6 c5 97 de bb bf
       -0.15496539508713522 -0.10886524752119989
000200 8d 6d 1e 5c a0 64 b5 3f e9 ce 75 4a 61 74 bb 3f
       0.08356668709750732 0.10724456851840682
000210 ae 13 6c 7b fc 63 d0 3f e6 11 9c 93 ce 62 b7 3f
       0.25610267689654165 0.09135142425299811
000220 87 d7 0d 4f 0e d4 d1 bf 0e 49 19 33 b4 59 b3 3f
       -0.27856786460994737 0.0755875229599818
000230 2e 07 3f c7 c2 c9 d2 3f 06 4e 7a 6f 1b 43 c3 3f
       0.29356450517308275 0.15048544829606686
000240 61 93 f5 d1 93 c8 c0 bf 6b d9 02 35 46 a9 c4 3f
       -0.1311211371604726 0.1614158400386246
000250 bd 9f 13 56 b7 10 6c bf 62 7c d9 ff f3 91 b1 bf
       -0.003425939634883661 -0.0686333179123593
000260 51 da c0 53 8e df c2 bf 5a 8a 92 fb 5d 66 bf bf
       -0.14744738664167525 -0.12265574829010842
000270 75 68 b9 b2 f1 4d b4 3f 1c b2 71 c4 2d fa c9 bf
       0.07931433308968557 -0.20294735042570344
000280 19 c0 dd 2f a1 ad ae bf c1 4e b4 93 3d 89 cf bf
       -0.05991843900017119 -0.2463757487499745
000290 b2 1b 47 92 df a1 c3 3f ba 5f 92 16 9e e4 c1 3f
       0.1533774818655878 0.13978935339104998
0002a0 5c 1f cb 04 06 df d0 bf b7 66 10 52 62 75 c1 bf
       -0.26361227481947025 -0.1363947773650602
0002b0 0d 70 71 54 84 3a b0 3f 3f 2b 14 74 d7 11 d0 bf
       0.0633928972396804 -0.25108896575754963
0002c0 7c e4 94 f5 27 77 c8 bf b4 7b d0 fc 2b cc 7b bf
       -0.19113635531701678 -0.006786510301963245
0002d0 c5 87 0e 0f 90 ea b7 bf 46 58 06 4c 61 ff ba bf
       -0.09342289321514759 -0.10545929056238021
0002e0 89 e3 16 9f 1d b1 d5 bf ce db be f2 86 f5 d0 bf
       -0.3389352849586023 -0.26498578744525225
0002f0 e3 91 5c 29 da e6 c7 3f b7 49 9e 79 3a 75 d1 bf
       0.18673254985436846 -0.2727800548247176
000300 74 b8 42 5f 1e 96 c1 bf 89 cb 39 dc 86 ff a2 3f
       -0.13739375735662274 0.03710576475432165
000310 d6 a1 b6 4a 11 3c 9d bf 66 11 89 2a a0 34 a5 bf
       -0.02854945200457045 -0.04141712683898184
000320 1b fc 70 ae 1e 9e 92 bf d2 53 3b 02 e5 eb b3 3f
       -0.01818130435662733 0.07781821541296033
000330 a2 b6 a6 9c ca 3d ce bf bc 01 0a f0 62 a3 9e 3f
       -0.236260725488525 0.02992014494020777
000340 e3 95 b9 e5 4a 2a b3 bf b2 7d d2 47 ce 28 d1 bf
       -0.0748640833713448 -0.2681155873669595
000350 21 28 b6 0a e4 47 e3 3f 4a ab 5c 16 cb 54 cc 3f
       0.6025257310113866 0.22133768646139124
000360 65 25 65 54 75 96 c2 3f 2a 93 6a 02 01 73 c0 bf
       0.1452166235051592 -0.12850964181884567
000370 bd cc 4f ff d3 b3 c1 3f fb 94 21 65 4d 4c d3 3f
       0.1383004185332534 0.3015321242913413
000380 58 88 aa 2f dd 42 ba bf 01 5a e5 36 a8 8e b9 bf
       -0.1025827638027591 -0.09983302440864607
000390 67 f2 4b ca 39 23 cb 3f 6f ea 3c 1a a5 dd cf bf
       0.212012504365606 -0.24895156651639946
0003a0 73 9b 51 79 d8 1a c9 bf 4d 63 f3 2a b7 35 b5 bf
       -0.1961317627312514 -0.08285088347055343
0003b0 da 8e ef 3d ce 02 a2 3f 1b d8 5a 63 f9 1c e4 3f
       0.03517765527774737 0.6285368862652406
0003c0 ab 7e d2 da 7f 6f c8 bf 8f 9a c8 c8 2b 2e af 3f
       -0.1909026926486964 0.06089913202258856
0003d0 e0 7d e8 40 37 0d c4 bf de 0f db 5e e5 13 a3 bf
       -0.15665331525177262 -0.03726116927057864
0003e0 50 7e b0 ed fb b3 48 3f 54 0b e9 5e bd 52 de 3f
       0.0007538776511672538 0.47380003231608225
0003f0 17 b3 0b 65 d4 fa e3 bf b5 e2 05 50 3f ad b2 3f
       -0.6243688558148247 0.07295604423223774
000400 51 14 91 aa 31 f9 a5 3f ac 80 85 17 75 c3 d1 bf
       0.04291682440865741 -0.2775547723486038
000410 61 50 38 ee bf 26 d3 3f c3 45 ee 8f 54 77 c2 3f
       0.2992400957457502 0.14426667240017652
000420 ee 66 70 9e 25 3b b4 bf c3 b7 a4 7b 7c 48 9f bf
       -0.07902751081601497 -0.030549950644107825
000430 fa b6 bb 3a be 05 d0 bf b8 ce 8f c9 cf ca da 3f
       -0.2503505300108909 0.41862864192738014
000440 0a 5a e0 4b 28 ec d7 bf f5 7a 98 77 b0 da d8 3f
       -0.37378890428354394 0.38834773711452836
000450 98 06 a8 8d 93 70 be 3f 48 90 c4 2d 60 b8 a2 3f
       0.11890527923972127 0.03656292494477548
000460 5c 81 9b 6e 68 f2 c5 bf 5d 41 14 db 4b bd df bf
       -0.1714602031779674 -0.4959287299580149
000470 d1 eb 61 42 74 f1 c5 3f f3 d7 57 3c f2 9a ad bf
       0.1714310955174754 -0.057822770944696254
000480 18 a2 42 49 4c 13 d5 3f c9 e4 53 cf db a4 c1 bf
       0.32930285600971976 -0.13784358619139983
000490 60 95 12 dd b2 88 c1 bf 8c 0f 99 76 01 48 d0 bf
       -0.13698421282348772 -0.2543948801214746
0004a0 07 04 f0 f7 dc 0d b4 3f 02 e6 98 48 e0 57 cc 3f
       0.0783365350071251 0.22143176598346775
0004b0 81 dc f3 c2 13 a8 ce bf 85 8c 0c 6d 1c 08 c6 bf
       -0.2395043088833724 -0.17212252926501406
0004c0 8b d6 15 22 03 ad cc 3f 55 1e 3d 2c 96 4b d0 bf
       0.22402991451570062 -0.25461344070615627
0004d0 d6 f1 96 4d 3e e7 a9 bf 23 94 dd b8 15 d9 de 3f
       -0.05059237191332826 0.48199980786586333
0004e0 5e 21 b5 25 8c 59 c3 3f 42 40 26 b7 7d de d4 bf
       0.1511702713126039 -0.3260797775810752
0004f0 5b 07 ee 5a 9f 77 d3 3f b2 eb 4f e7 55 cc d0 bf
       0.30417617683280235 -0.2624716528804881
000500 a5 b8 38 96 59 ca d1 bf dc a5 7c d3 b8 12 c7 bf
       -0.277975460720777 -0.18025884939679215
000510 5e 68 09 6c df 81 c3 bf 06 10 4a fb ef 1b c6 3f
       -0.15240090155822633 0.17272758264527982
000520 1c dd ee 95 23 33 d3 3f a4 02 86 a2 04 93 db bf
       0.2999962772550633 -0.4308482730048502
000530 84 38 eb 01 1d 0c b5 bf 3c 1a 77 85 58 87 cf 3f
       -0.08221608445021117 0.24631792561395283
000540 a1 64 43 ab b6 54 ce bf d8 53 f8 f7 c3 a9 c7 3f
       -0.23696025240386567 0.18486833198463049
000550 b6 f9 ab 2a 2f 3d bd 3f 5d 7c 89 15 83 ad 81 3f
       0.11421484748641472 0.008631729216345524
000560 0a f6 1c 95 6d d6 b1 3f 5c 7c 36 d8 bf f5 da 3f
       0.06967816248376138 0.4212493525937526
000570 63 8f 9e b5 f9 6e bd 3f 2c 5a fe ec 50 f8 dc bf
       0.11497460063998015 -0.45265601295378377
000580 27 cb af f1 47 2f d5 bf 66 e5 10 13 75 40 c0 3f
       -0.33101080515113995 0.1269670813651757
000590 83 cf c1 55 77 8e bd bf 5c 2a ac ca 1a 53 c3 3f
       -0.11545511096647769 0.15097365280265052
0005a0 14 2b a5 e7 74 58 e0 3f 63 db c4 d6 b2 b4 bb bf
       0.5107979320831384 -0.10822599166281814
0005b0 b9 d5 62 b5 07 83 bb bf 21 6d 14 14 f6 de cb bf
       -0.1074681108319372 -0.21774173717936043
0005c0 35 e4 9d be 7f b7 c5 3f f9 87 be 6f 05 7e c4 bf
       0.16966244513949538 -0.16009586292517478
0005d0 21 35 96 f3 b4 fe cd bf f4 d8 86 32 43 2b c7 3f
       -0.23433553594478787 0.1810077664101254
0005e0 50 88 7a 56 18 b4 c7 bf 9c e5 66 72 d3 e0 a4 bf
       -0.1851835653552052 -0.04077778598316259
0005f0 fd 97 66 73 7d fc bd 3f 89 39 2e cb 8b 56 e2 bf
       0.11713394229317937 -0.5730647056932848
000600 fa fd b6 d8 0f 76 93 bf a1 c4 90 c9 6b 85 e0 3f
       -0.019005057909224 0.5162867485834292
000610 56 6b 4e 50 fd 57 d4 bf ad df d7 15 59 ea c5 3f
       -0.31787045328535635 0.1712142330795791
000620 b9 b5 d3 da 83 50 c9 bf 68 cf 23 67 f2 47 d8 bf
       -0.19776962456618977 -0.37939128944639444
000630 5e e7 89 88 95 b4 b6 3f e1 59 20 d1 14 8b b4 3f
       0.08869299491371183 0.08024721246361068
000640 f8 2c b6 e7 30 36 d2 bf 69 74 a8 9b bd 80 c1 bf
       -0.2845575583275628 -0.136741353039642
000650 58 4c ea ee 1c 48 d2 bf b9 f0 01 f5 22 4a d8 bf
       -0.28565142947735955 -0.3795249359752791
000660 30 9f 9d 16 2e a3 c8 bf d7 fb 50 41 bb 59 a7 bf
       -0.1924798593929551 -0.04560647175139081
000670 12 35 85 71 c4 f1 c4 bf 50 b1 ca 21 f2 fe d2 bf
       -0.1636281542109051 -0.296810658454679
000680 c7 ca 85 69 98 2f a1 3f d8 6d 2b 1e 80 2c 9e bf
       0.033566248780422074 -0.02946663078442477
000690 d2 58 e6 d2 b7 b0 89 bf 46 b1 12 8d d3 fc c5 bf
       -0.01254409420361605 -0.17177814853983814
0006a0 a6 49 e8 7b 96 ed 72 3f 74 7e a1 6f 84 54 a0 bf
       0.00462111265962265 -0.03189481604271985
0006b0 6d 51 8b 0a 85 80 c9 bf a7 4e 6c 3f 3f 9c d2 3f
       -0.19923460974554122 0.290786563812825
0006c0 5f d9 37 6a 64 e3 c2 3f bf 73 2f e7 c0 48 c6 bf
       0.14756446062501546 -0.17409526146266605
0006d0 10 64 54 28 1d 18 da bf ab c2 02 61 60 47 a0 bf
       -0.4077217954487091 -0.03179455932820948
0006e0 7b f5 59 2c 16 de a2 bf ca cf 6d eb af 90 a5 bf
       -0.036850636400212765 -0.042119500626455045
0006f0 c3 3f a9 41 00 b9 d1 bf 66 cb a6 f0 33 cb c3 3f
       -0.2769165650579419 0.15463876009524852
000700 ec 4c 1b 2f 04 5e c8 bf 47 a6 e5 04 3b db c4 bf
       -0.19036915111664798 -0.1629403852378337
000710 04 d5 84 31 49 88 b0 bf ce 4b 24 78 d7 68 b7 bf
       -0.06457955798108023 -0.09144350703381507
000720 aa 58 4a ba 48 53 b2 3f c9 7e 69 b6 7a 6c 88 bf
       0.07158331440072865 -0.01192565793206714
000730 74 02 1f b1 47 b0 c9 3f 33 76 9d ae b1 b7 d5 bf
       0.20069214008801206 -0.33933679630522134
000740 47 1c 4f 11 69 15 cd bf ed 22 14 84 c0 3b c7 3f
       -0.2272158941761708 0.18151098679688663
000750 8b 82 7f e9 27 16 d0 bf 0b 35 e7 06 ac bc aa bf
       -0.2513522892241233 -0.052220702974958476
000760 64 0e 00 fe 57 78 bc 3f c8 10 84 78 eb f9 7e 3f
       0.11121129943063007 0.00756256085174218
000770 28 03 d2 58 a4 2a cd bf 4c cc 72 40 da 7a a0 3f
       -0.2278638299649398 0.03218729054187772
000780 1c 03 22 24 1f 2e 9d 3f c4 23 48 82 c3 f0 a3 bf
       0.02849625261342502 -0.03894625630716278
000790 56 21 5d c8 1f 6a b0 3f 6b e0 6f a9 a0 67 ca bf
       0.06411932603544321 -0.2062874629334631
0007a0 d5 6a 1f 1e cb 69 b3 bf 1b 57 29 34 a3 ea 88 bf
       -0.0758330296079451 -0.01216628554281445
0007b0 34 32 4a e3 54 82 ac 3f d1 be 53 22 a2 f5 a0 bf
       0.055681851144161604 -0.03312403363258699
0007c0 e5 62 73 da f7 83 c5 3f 0e e7 01 2a 0c c9 a6 3f
       0.16808984915294115 0.0445026208189586
0007d0 c9 42 96 9f c1 58 c0 bf e5 4d 28 48 8d 25 d5 3f
       -0.12770862858135093 0.3304169850027548
0007e0 aa 88 1e 20 41 76 d2 3f cd 70 20 6d 6d 20 c2 3f
       0.28846767555854547 0.1416146071286505
0007f0 48 9d 5b 98 48 82 d8 3f 8e ae f9 9c bd a2 93 3f
       0.3829518783445178 0.01917549391366307

net.1.net.0.bias f8 [50]
000000 8f 34 98 98 ef 3f c2 bf e1 cd df 66 ac aa b0 3f
       -0.14257616949945315 0.06510427009180077
000010 54 e3 e3 87 1e d1 cc 3f 91 29 0e f1 91 f4 9a bf
       0.22513181338561117 -0.026323585832452038
000020 da 98 0f 66 64 31 b0 3f 90 ef 58 5d ca 41 9b 3f
       0.06325366489145115 0.026618158290360905
000030 f4 07 fd 65 66 08 c7 3f c2 83 1b 1b 53 b8 c0 3f
       0.17994384746458503 0.13062514136893638
000040 6e 75 f2 38 b7 16 cb bf ca 6e 01 cf f8 91 d5 bf
       -0.2116307285367997 -0.3370344182528525
000050 48 1c 70 84 5a 7a ae bf 15 0e 5d 7d 95 5e b8 3f
       -0.059527233759631815 0.09519323645241003
000060 af 52 b1 64 a4 51 d8 3f 7f cf fe c9 a8 b3 d6 3f
       0.37998304208057737 0.3547155354128719
000070 57 d8 18 7e 7a 69 c8 bf 33 4f 88 85 78 1c b3 bf
       -0.19071894795496533 -0.0746531797415713
000080 61 4c 25 fd 4c d7 d2 3f 84 b6 11 e7 1b a8 e1 bf
       0.2943909141660637 -0.5517711175031796
000090 6a 30 07 80 87 3e da 3f dc cb 12 08 c2 72 c8 bf
       0.4100664854311221 -0.19100213426790347
0000a0 5f e7 00 01 39 b9 d6 3f 3f 56 df 5a a9 93 c2 bf
       0.35505509469986934 -0.1451312726700724
0000b0 cf a2 c8 cc 9c 94 ab bf 86 ae 1d d7 45 6e db 3f
       -0.05386819839288181 0.42860551841179306
0000c0 03 bb 15 27 a8 22 c3 3f 6c 6c b6 5a ba 74 da bf
       0.1494951430172123 -0.4133745084633975
0000d0 78 72 18 8a cc 01 91 bf a4 22 8b 9a e3 8f ad 3f
       -0.016608425072365013 0.057738411536381734
0000e0 bc 54 c9 77 5f f6 a5 bf 9c ea 0b 06 af a6 b8 3f
       -0.042895301220292364 0.0962933912050325
0000f0 13 c4 0f 73 79 94 ba bf 74 96 f9 56 09 c8 d3 bf
       -0.10382803973313086 -0.3090842580189481
000100 6d 7f f9 ad b0 84 c7 3f 10 39 3a 1f 0b d5 b7 3f
       0.18373688216069742 0.0930945349921084
000110 15 86 fd 57 aa fa c3 bf 2c e9 64 d0 00 11 a0 3f
       -0.15608720108416266 0.03137972396730712
000120 ff 3b ae 55 13 24 d3 bf fb 0e c2 71 96 d4 bf 3f
       -0.2990768753742827 0.12433758046432423
000130 66 6a 8e f5 f9 e4 c8 bf 4b 44 0b ca 31 49 c1 3f
       -0.19448780527166604 0.13504621854238716
000140 4f e3 c9 45 31 7d b3 3f 41 8f 22 64 de c6 b5 bf
       0.0761290355093369 -0.08506574578001126
000150 ce 05 89 7c 24 c6 bb 3f 65 cf 27 60 0a 9f da bf
       0.10849216499720812 -0.4159570635813366
000160 30 0d d8 a7 23 7c 96 3f fe a5 b9 55 ee 33 a8 3f
       0.021957928771383084 0.0472712020535475
000170 eb 31 d7 af 65 24 cc 3f 9d 48 ed bc d0 6b bf 3f
       0.21986075483290732 0.12273888218377
000180 45 b7 57 01 e3 10 c5 bf b9 0c d2 c9 54 74 a8 3f
       -0.1645778423839436 0.0477625366557048

net.2.net.0.weight f8 [50, 50]
000000 db b1 ad c2 27 8f da bf cf 1a 02 64 1b 98 ae bf
       -0.41498750697681225 -0.05975423427394377
000010 21 0e c0 4b ff cb e3 3f 54 58 e7 29 ca 95 ca 3f
       0.6186520080086134 0.2076962189300412
000020 2e 35 68 4e f5 85 c8 3f 8f 40 50 7f dd 9c d4 3f
       0.1915880806776981 0.32207429345090416
000030 69 7f 61 69 b2 79 9e 3f 6e bb da 7f cb 11 ce bf
       0.029761111909805935 -0.23491805785075875
000040 40 3d 65 e9 5e 30 bf bf 56 20 56 5c 0d d4 be 3f
       -0.12183182905322543 0.12042315964038272
000050 c5 ae d7 c5 9c 07 b1 bf b6 d7 b5 bb ee 64 b4 bf
       -0.06652240591182153 -0.0796651085164218
000060 3a b6 6e 2b ea a8 e6 bf 52 c9 b0 23 5f 49 a2 3f
       -0.7081194732942955 0.035716031176337495
000070 59 10 33 09 c8 4a db 3f 39 af 92 49 7b 61 d5 bf
       0.4264392938459927 -0.3340748041616624
000080 87 21 a5 db b3 33 d2 bf c6 35 71 a3 d3 c7 eb bf
       -0.284405674454796 -0.8681429092627517
000090 36 50 b6 a5 07 30 bc 3f d9 39 75 eb aa 13 d3 3f
       0.11010787769038263 0.2980754184144679
0000a0 78 f6 81 51 4d 8e cc bf 30 30 d9 2e ba b1 cb 3f
       -0.22309271316401058 0.21636130607146375
0000b0 38 be ae 12 26 2a c3 3f d8 ac 69 3d 83 13 b5 3f
       0.14972377693401184 0.08232898949943335
0000c0 a5 e6 18 d9 22 3b a0 3f a8 f1 d2 23 52 27 b9 3f
       0.03170117282975341 0.09825623869523403
0000d0 91 d0 40 20 dc 28 c2 3f a7 a9 63 b1 f7 9e cc 3f
       0.14187194418775964 0.2236013046416023
0000e0 a9 82 fb f1 fc f7 d1 3f d8 e9 be fd 23 a5 b8 bf
       0.28076099043941355 -0.09626984543766726
0000f0 fb d0 fd 94 fe f8 c3 3f 6d fd 8d 44 80 56 a1 3f
       0.15603620791410563 0.03386307560776456
000100 b3 e4 10 41 9b 7b c0 3f 66 c3 80 d6 68 7b d0 bf
       0.12877216984796788 -0.2575323195224456
000110 43 46 26 85 ed ef b9 3f 2f f7 8c 38 a8 e4 b7 bf
       0.10131725788803529 -0.09333278065329574
000120 9e 42 f7 f8 ed 13 c6 3f 51 24 64 99 43 d8 da bf
       0.1724832025197615 -0.4194497106514677
000130 ea 77 de f6 41 97 b6 3f c3 1a 2a ea fc 15 a9 bf
       0.08824550892902008 -0.048995879730730184
000140 55 c1 01 f1 4f e9 c0 3f ba ff c9 52 c1 ad b9 bf
       0.13212012546456245 -0.10030754348008389
000150 a5 b5 4d 8f 4d 14 d9 3f a3 b7 0e 41 0d 58 dc 3f
       0.3918641948174247 0.442874253781037
000160 b0 66 39 26 70 f4 83 bf 57 28 26 f3 14 c7 98 3f
       -0.009743572393904415 0.024196936932220883
000170 4a c8 5d b5 e7 1e ca 3f 83 9f 17 22 1e e9 ba bf
       0.2040681491449184 -0.10511959392863272
000180 f7 eb a0 53 17 b7 b0 bf 38 0b f6 61 90 39 da bf
       -0.06529374877656823 -0.4097634274150326
000190 3e 66 0d b0 24 8e c5 3f 02 2c 24 da 11 04 86 bf
       0.16840036960893373 -0.010749949903148707
0001a0 07 ce 4d 71 b4 01 d3 bf ca f3 9c 77 e4 dc 99 bf
       -0.2969790560229914 -0.025256700325588168
0001b0 b3 a2 09 62 53 70 b7 3f 57 95 36 96 85 ae b1 bf
       0.09155770438668291 -0.06906924168886995
0001c0 01 87 0e 53 38 b3 b7 3f 35 7a b7 97 4f be bf 3f
       0.0925784304404509 0.12399766401311114
0001d0 ec d8 3b 84 e9 c7 b3 bf 05 c2 d6 4e 6c fb d1 3f
       -0.07726916769374598 0.28097064684973844
0001e0 1d c8 d0 d0 4b 47 db bf 26 b4 7c 50 30 51 cb bf
       -0.4262265719618215 -0.21341518335376114
0001f0 30 9d 02 1d 01 06 c6 bf 4c 4d a7 53 71 55 b6 bf
       -0.17205823818697175 -0.08724125187227577
000200 26 f8 9f d4 f4 44 a4 bf f5 c1 ee 43 ef dc be bf
       -0.039588595347581454 -0.12055869492065326
000210 5e 4d 3d 56 ce 0b b2 3f 73 fe 80 d9 1f 58 9e bf
       0.07049264531570062 -0.029633042955764254
000220 fe 0a 86 fb 5a e5 96 3f 4c 27 06 0f fa 56 cc 3f
       0.022359296418936296 0.22140432103725016
000230 e9 75 fc b7 ac 5d d2 3f cd 8f c9 35 88 13 d0 3f
       0.2869674488773329 0.25119214298888154
000240 a4 49 2c ab 63 52 d5 bf c4 68 65 df 97 57 d0 3f
       -0.3331536456691089 0.25534626785305314
000250 2e c4 5d 92 20 e2 a7 3f 3b 3f ad 38 89 c1 b1 bf
       0.04664708887765588 -0.06935937532148
000260 10 e7 c4 12 7a 44 ac bf 1c 96 5e 7e fb 49 95 bf
       -0.05520993689647302 -0.020790032947522005
000270 76 d6 34 28 14 86 a1 bf 97 4e 09 19 7f 10 dd bf
       -0.03422606459427595 -0.4541318649764689
000280 97 53 c2 ea db 28 c4 bf 68 6c 4f 36 2c f6 ce bf
       -0.15749691927763074 -0.24188759471767018
000290 0b 24 9f eb c7 4d b2 bf d9 10 58 fe ef 38 c8 3f
       -0.07149934294206177 0.1892375938333604
0002a0 50 39 ad d6 01 dd b2 bf 28 db 42 93 bf 73 96 bf
       -0.07368480197076122 -0.021925919879062367
0002b0 55 bf 58 b9 9f a4 a6 3f ef 30 24 a5 96 c1 bb bf
       0.04422473084957682 -0.10842267543575067
0002c0 05 79 66 a8 18 e3 d3 bf 91 8f d9 c2 3d 9e d1 3f
       -0.3107358593496346 0.2752832796888863
0002d0 8a a7 87 3e d9 c2 90 3f 20 ad c3 3f ee 5c 9e bf
       0.016368288461229542 -0.029651377336375906
0002e0 6c 96 03 91 b2 74 c1 bf 5a ba 6d d3 61 35 83 3f
       -0.13637382584345248 0.009379162087239813
0002f0 57 61 3f 48 c7 10 c8 3f a0 82 bc 45 f5 20 cf bf
       0.18801203754152127 -0.24319330124946692
000300 09 d5 13 01 39 d0 df 3f fe 8f 66 0a 1e d9 94 3f
       0.4970839033624804 0.020359486946873055
000310 1e fe 4b 21 8f 21 a3 3f dd d4 b8 88 01 d8 c1 bf
       0.037365410627895765 -0.13940447975043116
000320 55 9e 52 51 64 0e c3 3f af b6 8d 81 90 c8 a1 bf
       0.1488767048915515 -0.03473331052269423
000330 9d 2a 1c 6c 90 6d c6 bf e2 14 d4 90 aa e8 8e 3f
       -0.17521863249597383 0.015092213196576446
000340 19 00 4c 9d 47 b1 b8 bf 3d 95 c9 94 2d 15 d0 bf
       -0.09645507421737455 -0.25129260568640516
000350 28 66 f0 cb 91 0a d1 bf af 2b f1 6d 14 cf b7 bf
       -0.266270112189519 -0.09300353702671658
000360 10 fe 2a 02 3a 77 cb bf fa 48 59 21 cd 41 c6 3f
       -0.2145760069451943 0.17388309601171398
000370 e9 a1 8e 42 50 1b ca bf ad 19 80 c8 96 45 d1 bf
       -0.20395854234563096 -0.2698723752986563
000380 c3 7e 6f 61 b4 25 ca bf 65 d5 3a f3 fb a6 d2 3f
       -0.20427565343469753 0.2914419055262754
000390 06 c6 6e 13 88 73 c3 bf bb 23 86 06 b7 0f d1 bf
       -0.15196324299681424 -0.26658416401965795
0003a0 51 38 e0 60 e0 2c b5 3f dc 58 65 72 f5 5f 54 3f
       0.08271601071484837 0.0012435814802152423
0003b0 ef 40 ee 5a 20 bf b6 bf 06 c2 b4 f1 d9 06 d4 3f
       -0.08885385723101867 0.31291817287549895
0003c0 7c 5a 2a 8f 2c fc c0 bf 91 c6 5b e5 40 af bb bf
       -0.1326957415628448 -0.10814290618488999
0003d0 ed 55 e3 ef 2e cd c1 3f 79 9a ab ce 11 ee b3 3f
       0.13907419884951314 0.07785140319502117
0003e0 96 f1 77 36 00 e1 bd 3f 9f e8 da 87 98 e7 cb 3f
       0.11671449022100541 0.21800524362135307
0003f0 c6 84 15 1d e9 e4 c9 3f c6 94 26 a3 f0 02 b9 bf
       0.20229829712028485 -0.09770111067935536
000400 91 7e 2c 2a ed 2a c8 bf 6c 2b 03 df 7f b6 d1 bf
       -0.18881001052158244 -0.27676388529351104
000410 91 92 ce 92 58 49 91 bf e4 74 e3 00 4d 48 b0 bf
       -0.01688135524786333 -0.06360322257701828
000420 da 96 01 d2 3f 54 b7 3f 3d 52 f7 b6 56 89 b5 3f
       0.09112929226975144 0.08412687270112769
000430 a2 65 cb 48 53 6e c1 3f 4b af 9c ff dc f6 ca bf
       0.1361793618623724 -0.2106586692910873
000440 3a 2d 40 06 13 e3 b5 bf c7 0e 8e 3f c2 2d a7 3f
       -0.08549612906079043 0.04527098680321511
000450 e9 55 e1 ed 04 b2 8f 3f 9a eb 59 32 7d 8a d1 3f
       0.015476263532188521 0.27407770077814464
000460 c4 dd e3 dd 5e 4d d7 3f c6 79 c2 bb 83 b9 cd bf
       0.3640973250289472 -0.23222395580246608
000470 f9 d7 ba 25 61 57 b8 bf 0a 22 e3 2b 23 3c 96 3f
       -0.09508330508364783 0.02171378093115276
000480 23 b1 82 c1 6f 0e cd 3f 82 fc 62 7e 8a 19 70 3f
       0.22700306843524584 0.003930607787139386
000490 53 03 14 e2 5a f9 82 bf ef 3f 9b 09 9c 13 bb bf
       -0.009264669441564932 -0.10576796755344707
0004a0 58 88 a0 cc 82 78 c0 bf 38 3a 17 5f a1 09 b3 bf
       -0.1286777018695513 -0.0743656975894077
0004b0 9c 2d 10 11 87 25 d2 bf 19 31 50 f4 dd f7 9a 3f
       -0.2835405031807683 0.02633616260213598
0004c0 1b 50 c9 f2 ab 5f b9 3f 11 49 18 53 23 ea ab bf
       0.09911608388330288 -0.05452070607511151
0004d0 f4 46 53 ba 4b 63 c0 3f 93 3d a7 7b 28 68 cf 3f
       0.12803026769557102 0.2453661540771291
0004e0 8f 70 36 78 29 6d b7 3f c2 3d 56 d4 c1 7e 9e bf
       0.09150942978743813 -0.029780415139212264
0004f0 88 42 10 43 01 78 c4 bf cd 04 df b5 52 9c e0 bf
       -0.15991225981317236 -0.5190824081584197
000500 e6 44 4e 10 dd 06 be 3f 01 e4 d0 3d b0 05 d0 3f
       0.11729222915734602 0.25034719502178865
000510 67 81 09 d0 0d c0 a4 3f b9 f6 d8 e1 85 0e db 3f
       0.04052775539890057 0.42276141219540936
000520 10 20 90 b2 08 9a c0 bf 7f 28 3c 46 e1 39 b2 3f
       -0.12970074385543784 0.07119567837449557
000530 16 99 0a 2b 85 67 70 3f e2 cf d8 51 f5 8c cf bf
       0.00400497454453432 -0.24648920532638302
000540 dc 7b ff 2d be b5 c7 3f 86 3b 53 25 0b 11 61 3f
       0.18523385282511995 0.0020833223048621367
000550 cd e4 a2 c2 c0 1f c4 3f 63 83 23 27 fd d7 a8 3f
       0.1572190237400605 0.048522864368129935
000560 a8 66 72 1d a3 93 cb 3f 99 a9 69 58 70 1d df 3f
       0.21544302881084332 0.48617180475289384
000570 75 aa 8a 01 bb 42 be 3f 2e 96 e8 ce d8 58 c3 bf
       0.1182057265056445 -0.1511488924308408
000580 9a 5c 56 61 0f 72 c9 3f b9 ac a6 7c a1 32 c7 bf
       0.1987933373718292 -0.1812326296470468
000590 2e 49 fe cc e6 bc 87 3f a7 86 d8 15 02 66 b2 bf
       0.01159076989259641 -0.0718690207800373
0005a0 48 69 a8 f7 cb 8c c2 bf 5d c9 24 1c 74 ea c9 bf
       -0.14492177574795506 -0.20246745466426833
0005b0 7f da 6c 51 8c 5b ab bf 81 39 b4 1e 74 02 bc bf
       -0.053432831706619936 -0.1094124388657516
0005c0 ba 85 53 9e 6f 3d cc bf 37 7d 6c 77 bb aa c8 bf
       -0.22062487822317484 -0.19271033602942975
0005d0 73 ec db 5b 67 eb bb 3f 6e 68 e4 04 1c 83 d5 3f
       0.10906072609570731 0.33612728574519835
0005e0 4a 2a 8f 95 d8 4e a0 bf db ef 08 12 c7 ac b8 3f
       -0.031851547486060186 0.09638637724213998
0005f0 4e 9b f8 ae 76 42 a7 bf a6 14 89 85 7d fc c4 bf
       -0.045428952082423465 -0.16395539303099332
000600 c5 21 61 2e 4b b7 b1 bf 40 9d bf 32 d3 7f b1 3f
       -0.06920308954534622 0.06835670460678944
000610 20 26 c8 0e 4b 0f b7 3f 37 20 d0 a7 f1 cf bc bf
       0.09007710562595905 -0.11254797312733521
000620 b6 b3 f9 a6 d8 41 c2 bf d3 2f f8 36 92 b3 a3 bf
       -0.14263446953864695 -0.03847939415945203
000630 58 fc ec f0 34 06 a1 bf 75 92 1b ab 62 66 c5 3f
       -0.033250479135397526 0.16718705515735946
000640 66 7d bc 23 63 79 cb 3f 84 65 ba 22 6e 04 c9 3f
       0.2146419453137966 0.1954476995058877
000650 3e d4 f0 d1 1b d4 b3 3f 08 bc 21 6f 90 af b5 bf
       0.07745527148729622 -0.08471014702966795
000660 67 42 85 34 a8 8e be bf 66 33 f1 ad ba 06 49 bf
       -0.11936427385558944 -0.0007637416382607453
000670 8f 03 85 4e 36 15 c4 3f bf 1c 40 55 03 ff 8e bf
       0.15689734300579203 -0.01513483623422329
000680 b0 50 87 3f 4f a4 aa bf fe 74 f0 bb 51 71 c7 bf
       -0.052034832482293125 -0.18314572979662808
000690 5e 96 d7 11 fd c5 a9 3f d4 fa 82 8e 67 30 c7 3f
       0.050338657787318594 0.1811646886689774
0006a0 8f cc ce 4d ab e5 e7 3f 2b 24 b1 a2 9e a8 c3 3f
       0.7467857856448904 0.15358336395209568
0006b0 07 0a c6 ea 04 49 cf 3f d9 da 8c 12 b8 2b a3 3f
       0.24441586936525558 0.03744292475169226
0006c0 32 72 fa c2 29 7b b4 bf 5b 58 90 65 4e e9 c8 3f
       -0.08000432024204754 0.19461994132206226
0006d0 cf cf fe 9b af b3 d0 3f d7 6b 1c 53 39 bf a5 3f
       0.2609671615020916 0.04247454776324105
0006e0 3b 67 40 a1 e4 3e b0 bf 0e a9 04 ed c6 64 be 3f
       -0.06345967232519183 0.11872523581101666
0006f0 d5 65 e2 66 c5 10 cd 3f 08 9e dd bc ad 49 bc 3f
       0.22707431338930797 0.11049924717882942
000700 1f 71 ac 47 eb 42 8a bf 59 0a e4 f1 bd af b5 bf
       -0.012822950482182236 -0.08471285968338672
000710 ca 2b fd 0b 46 3d 8b bf 82 3a 08 dd 2e 26 c2 3f
       -0.013300463906167698 0.14179025452218147
000720 93 48 33 e1 cf 5b b0 bf 76 d8 f4 0b 05 e4 c3 3f
       -0.0639009403996929 0.15539610942659338
000730 1d 6c 8f c0 b9 73 c1 3f 73 ba 8c a8 db 61 a0 3f
       0.13634416487079273 0.03199659759990405
000740 16 23 4e 2c 00 c2 ba 3f 6c 18 8f 8b 67 d9 82 3f
       0.10452271539373856 0.009203728624822292
000750 8b 12 2d 18 27 04 b1 bf 45 93 6b 79 e0 e0 a1 bf
       -0.06646961536632483 -0.034918799230388355
000760 72 e8 a2 76 c8 2c d3 3f 0e 9f 53 9b 7d 97 ba bf
       0.29960834107953993 -0.10387406389383733
000770 45 bd a8 94 03 81 b9 bf 71 48 eb 93 c8 98 b1 3f
       -0.09962484721539962 0.06873754130654831
000780 b6 59 d8 0a 31 e9 93 3f c5 be 88 dc 8c dc 6b bf
       0.019444242751058126 -0.003401064987222787
000790 52 26 6f dc d0 cb d7 bf 38 8b eb 1c 99 f8 a4 bf
       -0.37181493307852975 -0.04095915296581726
0007a0 90 a3 2f a9 d2 fd c9 3f 29 fc 9e 0a cb ba cf bf
       0.2030585599998429 -0.2478879739628337
0007b0 61 48 41 15 f8 bc a1 bf 34 91 76 fa 18 10 86 bf
       -0.034644844622236055 -0.01077289118149647
0007c0 6c 75 66 78 f6 08 b1 3f 69 91 58 bc da 82 d0 3f
       0.06654301108797761 0.2579867209735967
0007d0 1d 16 eb 39 ad f1 d4 bf 71 f0 9b 85 80 47 cb 3f
       -0.3272507730110606 0.2131195690525405
0007e0 7c 0d 25 b3 7c 19 b6 3f d0 40 fb a6 d7 c5 e6 3f
       0.08632640241289907 0.7116506825787159
0007f0 d8 30 30 fd 72 17 be 3f cf 17 99 ee be d6 d6 bf
       0.11754530602792401 -0.35685704517925115

net.2.net.0.bias f8 [50]
000000 86 2d fb 35 ad 09 d8 bf 2d 11 e0 9c a9 f9 c1 3f
       -0.37559061309431063 0.14043159637379557
000010 2d 35 ce 4b 5d d8 65 3f ed a2 84 71 c0 af bd 3f
       0.0026666471662283504 0.11596300860822924
000020 cc ca ce bd f6 24 9b bf 46 08 54 0c a9 d1 b9 bf
       -0.026508193335483196 -0.10085541296942421
000030 6d 6e e4 73 ec e9 b0 bf bb 19 7c e5 4f fc ab 3f
       -0.06606939153101062 0.054659363520886704
000040 18 2d 93 ba a9 7d 84 bf 65 96 0c 11 c8 23 c6 3f
       -0.010005308157266898 0.17296696503142353
000050 30 08 b9 77 54 b0 b7 3f 37 f4 e2 18 80 e3 c1 bf
       0.09253433154029334 -0.13975526061213525
000060 7e f5 24 7f 90 c1 be bf 0a 7d 0f 99 18 87 8d 3f
       -0.12014105896101587 0.014417831584010905
000070 fe 6c 9e e6 6a 20 ca 3f 6a 5e fa f4 ce 96 bb 3f
       0.20411430607496323 0.10776990395458488
000080 c4 73 41 9f a5 62 92 bf 1b 28 58 0e 86 52 b1 3f
       -0.01795443329352843 0.06766546106533193
000090 03 7d ea de 7c d9 ae bf 2f 49 78 c7 c2 81 c1 3f
       -0.060253050052091715 0.13677248706569275
0000a0 0c cb be 5b 8b dd b3 3f 72 cc a5 8f 88 24 a9 bf
       0.07759924878955021 -0.04910685304175723
0000b0 90 d6 14 9f b4 df a0 bf d9 35 ca 10 1f 74 ab 3f
       -0.03295673791801079 0.053620310592218785
0000c0 20 58 c1 2a 2c bf a9 bf e8 02 e8 6e c4 9a b3 3f
       -0.050286655635020105 0.07658031184838487
0000d0 6f 74 92 23 87 75 b0 3f 55 94 bc b3 02 9f 62 bf
       0.06429333322962959 -0.002273087766200758
0000e0 21 35 09 49 9e 4c d2 3f 64 71 d1 36 4c 48 c0 3f
       0.2859264100305428 0.12720635105768985
0000f0 e5 fc 57 d1 8d f5 a2 3f 5a 97 10 54 ed 6d 9d bf
       0.03702967815842743 -0.02873965097037199
000100 4c e4 90 c6 d5 8d 99 bf dd e2 c7 c3 43 a9 87 3f
       -0.024955120319848853 0.011553315555816674
000110 d9 9a a6 65 8a bf d0 bf ae 1f 78 b6 36 04 64 bf
       -0.26169071127735105 -0.002443415509109279
000120 91 88 04 e0 25 ea a9 3f 1e 07 72 51 9d d1 c8 bf
       0.050614532085334514 -0.1938969276125641
000130 c6 d3 99 74 6d dc a7 3f d6 1b ea d1 ed 4c 81 bf
       0.04660360382414512 -0.008447511643010868
000140 0a 14 3e 30 f9 38 b2 3f d8 3f b7 20 5c 48 c3 3f
       0.07118184497637983 0.15064574811412856
000150 07 83 cb be 82 36 74 3f 53 93 7a 2d 2f 00 a3 3f
       0.004934797977256939 0.03711078100358258
000160 b3 eb fe a6 bd e4 bb bf 78 7d 6b df f4 54 c8 bf
       -0.10895905806584842 -0.19009266766714084
000170 d3 29 80 9b fc 99 b2 bf 77 a7 58 10 51 c0 a2 3f
       -0.07266215130235958 0.0366235096410738
000180 11 10 5a d5 93 9a c1 bf 25 99 5e 7e 15 89 a3 3f
       -0.13752983014649137 0.03815524261090023

net.3.weight f8 [1, 50]
000000 b7 e9 ea ad fa 5f d1 3f f1 63 e1 ea a4 a0 ce 3f
       0.2714831064619391 0.2392774721982103
000010 51 0e 8c 82 90 82 d2 bf 8d af 37 d5 7c b5 b0 3f
       -0.2892190241693458 0.06526928143983764
000020 90 9c 05 7d 95 f2 bf 3f 67 eb be bc 1a 88 c0 bf
       0.12479528715413069 -0.12915357795813096
000030 8e 08 7c 7d a2 47 cf bf c6 b4 89 51 f6 5b ba 3f
       -0.2443736183850586 0.10296573153182739
000040 5d f5 26 d4 a1 9b b6 bf 77 24 7f e0 ea 73 cc bf
       -0.0883122580480253 -0.222287520997529
000050 09 98 9a 8c 88 29 ce 3f 88 1a 4e 2d 8c 72 d4 bf
       0.23564249864028877 -0.31949142860722946
000060 b8 52 d0 46 2e 40 88 3f 08 00 22 c7 92 75 d5 3f
       0.011841165100159187 0.3353011078506829
000070 06 ab 87 78 77 1e dd 3f 17 4b 18 ac c6 d3 d3 3f
       0.45498453875067957 0.3098007851232735
000080 79 90 21 ca 92 35 bc 3f aa ab ba e0 7b 3c a8 bf
       0.11019246516076632 -0.04733645551944872
000090 0b 3b 1b 93 94 6d c0 3f d3 e1 b0 10 11 e8 ce 3f
       0.12834412749222 0.24145711245524967
0000a0 00 ed 5a f5 24 ba e0 bf 83 0e d6 7a 88 d2 aa 3f
       -0.522722701272329 0.0523874902674182
0000b0 2f 49 24 ff 7a 88 9c 3f 7c 9a 28 c3 2e 00 c3 3f
       0.027864381620994635 0.14844307450512761
0000c0 da 94 a2 1f 02 94 ce 3f ab 1b 0b bc 5c 4e cb 3f
       0.23889185471231295 0.21332892591291616
0000d0 3a b1 a2 69 84 c8 74 bf 6d 41 4b 8d 4f 97 cd bf
       -0.005074040638799732 -0.2311801376258801
0000e0 9f 6d e0 f2 83 ea ad bf c3 c4 13 66 4e 36 d5 bf
       -0.0584298356991113 -0.3314395901534903
0000f0 7b 9e af 4f 4e 6d b7 3f c2 6e 32 f6 a2 64 c1 bf
       0.09151162572345044 -0.13588368436182036
000100 7c 17 e7 57 a5 52 d7 bf f5 9d 98 66 5f 38 bc bf
       -0.3644193037438226 -0.11023517851628369
000110 7e 33 df 23 63 56 c0 3f 56 83 01 ab d3 e4 c6 3f
       0.1276363301425611 0.17885824060342753
000120 75 be 42 c8 e5 54 bb 3f 56 d9 ca 35 ab 00 a6 3f
       0.10676418437173558 0.042973852459385384
000130 d2 fa 3f 42 55 83 cf 3f 45 04 2f c0 24 6e 9a 3f
       0.2461954663740103 0.02581078932758298
000140 29 a4 70 f4 e7 ab 92 3f 74 0f 22 cd 7a 47 bd 3f
       0.018233894628938572 0.11437194355135977
000150 fc 1b 01 f3 ac 0c d1 3f 37 03 14 62 0c 9a d8 3f
       0.26639865618602676 0.3844023664278668
000160 18 18 a4 e2 dd 17 dc bf d7 fe 0f 7d 60 ed c5 3f
       -0.4389567101756042 0.17130666834417838
000170 98 0e 34 d8 0a b8 d1 bf ab 08 fb 65 5a ee bb 3f
       -0.2768580542908494 0.10910572995911376
000180 3c a9 22 75 7a 65 cb bf a2 94 7c 1b bf 47 c0 3f
       -0.21403437346936893 0.12718952982064474

net.3.bias f8 [1]
000000 d0 48 b1 f3 11 30 86 bf
       -0.010833873986630854
